PillarGame/Assets/Models/pocaModel.onnx (onnx, 110359 bytes, 9 tensors)

discrete_action_output_shape f4 [1, 2]
00000000: 0000 4040 0000 4040
3.0 3.0

network_body._body_endoder.seq_layers.0.weight f4 [128, 74]
00000000: a3eb 363e 63b0 e3bb 4fd5 e4ba da1c 073a
00000010: 3e8e 113e 27bb 65be cd2a e63d 0abf 43be
00000020: 58d6 d23d 7e28 09bc d7b1 bebd a73a 87bd
00000030: 17a8 0f3e 32c3 c2bd 29ef f8bd 2d2d b2bb
00000040: 0f27 19bd 26c3 653d 7127 033d b59d a1bd
00000050: 35d4 2a3e e6f8 8fbd 6d49 d13e 4ee6 003e
00000060: 3049 46be fce7 a0be bba5 203e f808 4ebd
00000070: 5f3f 6abd a236 8ebe 2974 bd3d d706 873d
00000080: bca3 de3d c235 80bd 621a cebd 6ff4 a4bd
00000090: 3afc 883d b3e1 94bd d8c5 4ebd 5aca ed3d
000000a0: ab0b 683d 67cc 93bd d146 e0bd c6c5 2fbd
000000b0: 039d ae3d 832b 2fbe be68 19be db05 bcbc
000000c0: 61d6 9dbd b067 843c 1fbc 0c3d e6fa 053d
000000d0: c889 ff3b 9357 833e 1bef ce3c 7fed 20be
000000e0: cbcb 9b3d e2d7 493e b5f2 3fbd 4835 8abd
000000f0: 242b 98bd efaa 5abe cc3a 5b3e 02eb 4dbd
00000100: bc0c 26be 6056 a9bd 9634 4cbd f718 333e
00000110: 0c2d b8bc 12b6 c2bd 5c1f e4bc 241e 02bd
00000120: 8fae 7c3e 0922 08be 0301 663e d044 11be
00000130: 78fa 93be ab17 97be b708 20bd 67bc 8e3e
00000140: 85c1 23bd 07c1 acbe 95b1 2abe 9977 033e
00000150: db8e 263e 1b2c 37bc 17ee 8dbe a79a ccbc
00000160: 84aa 01be 09b2 643e 4f81 85be ba98 71be
00000170: e7de 953d ad05 613e efbb f13d 40c2 4abe
00000180: 33af ecbd c8b7 0cbe 51ff 86bb 438d cbbb
00000190: 9f8e fc3d 7506 03be 5a87 cebb 5b05 283e
000001a0: 6a35 63bc 1bfb ba3d d4f3 07be 7c7f 433d
000001b0: 9ca1 173e 378c 83bd 9b35 e93d 2f26 8f3e
000001c0: eb3d 9dbd 190e 0fbe 8bc8 d1bd 6ba6 4d3e
000001d0: ad77 9c3e 3236 133e b61c 8ebd 8999 2dbc
000001e0: 7a03 c33c e60f 873e 1f88 48be e677 5cbe
000001f0: 5e9e 76be 5c9c c13e a462 ab3e 2460 4abd
00000200: a85d 2bbe 571b 24be a4d2 903d 8a60 bb3e
00000210: cd6c 93bd 7187 64bd 713d 17be 4123 53be
00000220: c4ff f23e 0cc4 7dbd efd4 41bd 0807 8d3d
00000230: 6a33 7f3d a6a4 54bc 1523 eabb 09bc 833e
00000240: f189 e03d ae6e a0bd d93f 8abd 0337 9a3c
00000250: 5fa8 c93c 7e13 0cbe 40d4 0cbe 087f f63d
00000260: fc9c 07be f4e4 1c3e b37b 7abe d5ca bbbd
00000270: 94f9 b63c a8bc 23be 5188 87bd 6086 283d
00000280: 98b6 52be 2629 323e 4087 c8bd 0e58 3a3e
00000290: 9690 d0bd ac51 cbbe 1890 bf3c df38 ffbd
000002a0: 8e0e bebc b30e 81bc a848 343d 1a1f b23d
000002b0: d46b 4cbd 6d43 2a3e 6d44 99bd a03a 41be
000002c0: d9d9 d43d f20a 0dbe 99c4 8fbe 43ff 993d
000002d0: 2d7f 033e 2670 723e 2e97 1dbd fe72 dfbd
000002e0: cc5c 0f3e 43d1 49bc 1412 aa3d 3944 59be
000002f0: dd26 33be 2424 aa3d 6682 cf3d 2126 a43d
00000300: 73d3 443d 9d81 f4bd c761 e13c e923 133c
00000310: dd5f 353d 7a09 79be 5047 0bbe e79a 2f3e
00000320: 621a 6cbb 9e39 393d 484f babd 4420 6dbe
00000330: cda2 79bd 99b2 613d 1846 a1bd 1341 adbc
00000340: 7224 c9bd 9a46 a93e 86bd 5e3e 763a 0dbd
00000350: 9c99 fdbb 10c3 da3d 60d1 2fbe 48e9 26bb
00000360: 303e 3d3d c3d4 a0bd 1b01 09bd 1d49 15be
00000370: c2e8 f0bd 6254 c13b ba98 473d b758 093d
00000380: 019b e43d 16e5 36bd bdf3 fabd f882 0ebe
00000390: 7da8 4cbd 1f02 af3e 3dbe 3dbd 92fa 653e
000003a0: 0b6a 053e 2c99 933a 2a33 f93c 7a03 bbbd
000003b0: 721b d6bc 123c d7be ca7e b23e 543d 863e
000003c0: 2e6b d8bd 6b7d 183c b927 f5bd 5c7f a83d
000003d0: d8e3 20be b970 57bb f705 5b3d 1fba f0bd
000003e0: e488 213c 2f94 b3bd e71d 9dbd f819 3bbb
000003f0: 47b1 33be 2c1d e4bd e284 7bbe 8fcc cfbc
0.17863326 -0.006948517 -0.001745859 0.00051541405 0.14214417 -0.22434674 0.11238632 -0.19115844
0.10294789 -0.0083714705 -0.09311264 -0.06602984 0.14028965 -0.09509887 -0.12154991 -0.0054375143
-0.037390765 0.05609431 0.032020036 -0.07891408 0.16682513 -0.070298955 0.40876332 0.12587854
-0.19363856 -0.3142699 0.15688221 -0.050301522 -0.05718934 -0.27776057 0.092506714 0.065931015
0.108710736 -0.062602535 -0.10063626 -0.080544345 0.066887334 -0.07269611 -0.050481647 0.11610861
0.056651752 -0.07216721 -0.10951007 -0.04291322 0.08526041 -0.17106442 -0.14981362 -0.02295201
-0.07706905 0.016162723 0.034359094 0.03270998 0.007798407 0.2565275 0.025260499 -0.15715598
0.0760723 0.19711259 -0.046862323 -0.06748444 -0.074301034 -0.21354268 0.21409148 -0.05027295
-0.16215795 -0.08268428 -0.049854837 0.17489992 -0.022482418 -0.095073834 -0.027846985 -0.031767026
0.24675964 -0.13294233 0.22461323 -0.14186406 -0.2890203 -0.29510245 -0.03907081 0.27878115
-0.039979476 -0.33741018 -0.16669305 0.12838592 0.16265433 -0.011179949 -0.2772071 -0.024976088
-0.12662703 0.2233354 -0.26075217 -0.23593417 0.07317906 0.21974821 0.118034236 -0.19800663
-0.11556854 -0.13741982 -0.0041197916 -0.006211908 0.1233189 -0.12795432 -0.0063027563 0.16408293
-0.013867715 0.09129926 -0.13276607 0.047729 0.14807743 -0.06423228 0.113871776 0.2795882
-0.076778255 -0.13970222 -0.10243329 0.20083015 0.30560055 0.14376143 -0.0693907 -0.010595688
0.023805369 0.26379317 -0.19583176 -0.21530113 -0.2408385 0.37814605 0.33473694 -0.049408093
-0.16734946 -0.16026054 0.070714265 0.3659709 -0.071984865 -0.05579323 -0.14769532 -0.20618917
0.4746076 -0.061954543 -0.04732221 0.06886107 0.06230489 -0.012978708 -0.0071452954 0.25729397
0.1096381 -0.078336105 -0.06750459 0.01882506 0.024616418 -0.1367931 -0.13752842 0.12035948
-0.13243479 0.15321714 -0.2446125 -0.091695465 0.022335805 -0.15989935 -0.06617797 0.041143775
-0.20577466 0.1739851 -0.09791422 0.18197653 -0.101838276 -0.39710748 0.023384139 -0.12462019
-0.0232003 -0.01575408 0.044014603 0.086973384 -0.04990752 0.16627283 -0.07483754 -0.1887002
0.10393114 -0.13773707 -0.2807968 0.075193904 0.12841482 0.23675594 -0.038474254 -0.10910605
0.14000243 -0.012317958 0.083042294 -0.21217431 -0.17495294 0.083076745 0.101322934 0.08015085
0.048053216 -0.11938784 0.027512444 0.00898073 0.044280875 -0.24320021 -0.13601422 0.17148934
-0.0036026468 0.045220964 -0.09097153 -0.2315684 -0.060946275 0.055101965 -0.078746974 -0.021149194
-0.098214045 0.33061677 0.21751985 -0.03447958 -0.007739259 0.106817365 -0.17169714 -0.0025468636
0.046201885 -0.07853081 -0.03344832 -0.14578672 -0.11763145 0.005899952 0.048729636 0.03353187
0.11162377 -0.044652067 -0.12253521 -0.13917148 -0.04996537 0.34181306 -0.046324003 0.22458866
0.13028733 0.0011260859 0.030419905 -0.091315225 -0.026136134 -0.42038018 0.34862357 0.26218665
-0.10567318 0.009307246 -0.11970467 0.08227417 -0.15711915 -0.0032873584 0.053472485 -0.1175425
0.009859297 -0.08768498 -0.07671719 -0.0028549414 -0.17548095 -0.111383766 -0.2456241 -0.025366096

network_body._body_endoder.seq_layers.0.bias f4 [128]
00000000: ebdf 84bd 2ad8 753d eaae 72bd 8c6b 783d
00000010: 1d26 fdbc 9fae 82bb aeae c0bb 70b1 c0bc
00000020: f3e9 163d 1e30 8ebc 179e 59bd b3e2 eebc
00000030: 6441 83bd 2e28 883d 33ee aebd 2f59 e33c
00000040: 980f 47bd d06a 803c bbed 5d3d 6613 47bd
00000050: 779f 0fbc 9450 7dbd efcf f23c 60f5 bbbc
00000060: 34a0 38bd ee60 2cbd d0b2 4bbd 17ec c13c
00000070: 8cb8 16bd b070 a538 577a 9d3d 214c 363d
00000080: 18c6 a7bc e6dd c93c c924 183b 0d59 ec3c
00000090: 9f5a 52bd 453e 133d 908f a5bb f155 b7bd
000000a0: 36c3 8abd d844 be3c 4d7a 713b a361 a0bd
000000b0: 99f8 163d a78b 973c 5b8d 863c b738 8fbd
000000c0: c47a 86bd dc28 f7bc ad49 54bd 7dcc 6abd
000000d0: ec49 2ebd 875a b039 93c2 20bd c712 683b
000000e0: 8fdc a0bc 8e38 3ebd 4184 4ebd 36e5 94bc
000000f0: fc75 88bd 2903 68bd 2dc1 03ba a006 72bd
00000100: 0441 aa3d d8cc aabd 005e 20bd 2d9e 903c
00000110: 30c8 9c3c 2f60 70ba a3eb 993c 7acf 0dbd
00000120: 5dd9 a73c 18b6 a0bd e87f 063d ea33 bfbc
00000130: f4e3 9f3c 3890 adbd 66ab b23d e9c4 6f3c
00000140: 34ab 453d 0feb cfbc 5f7b a73d 63a5 8e3c
00000150: 6522 66bc d9e2 0a3d a476 93bd 9755 c2bc
00000160: 10ff 9938 da00 0abc 617a e0bc 9489 05be
00000170: 46ef ab3c f1b4 81bd 0f4b 8f3c 7d6d 073d
00000180: e21d 52bb 611b 823d 6ac0 d93c d339 53bd
00000190: 6210 24bd 1f62 5dbd 2ef0 3e39 ee98 c1bc
000001a0: 94ea a1bc 4466 cdbc 06bc 983b 73d3 96bd
000001b0: 446f 95bd d153 b5bb 843c 0dbc d160 883c
000001c0: af37 023b af2a b8bc bb84 9a3d e311 b33c
000001d0: 9ef7 adbd 6449 b23c 3c47 453d f519 1bbd
000001e0: 512c 483d 3b2f 50bd 88f9 d0bb de06 0abd
000001f0: 136a abbc fa83 24bb 132c 27bd 51e5 a9bd
-0.064880215 0.060020603 -0.059248842 0.06064944 -0.030901963 -0.0039881016 -0.0058801984 -0.023522109
0.036844205 -0.017356928 -0.05312928 -0.029160833 -0.06408957 0.06648289 -0.08541527 0.027752487
-0.048598856 0.015675932 0.054181796 -0.048602484 -0.008766047 -0.061844423 0.029640166 -0.022944152
-0.045074657 -0.042084627 -0.049731076 0.023672147 -0.03679709 7.888803e-05 0.0768935 0.044506196
-0.0204802 0.024641942 0.0023215285 0.028851056 -0.051355954 0.035948057 -0.0050525144 -0.08951939
-0.06775515 0.023226187 0.0036846579 -0.07831123 0.036858175 0.018499209 0.016424825 -0.069932394
-0.065663844 -0.03017085 -0.051828075 -0.05732392 -0.042550966 0.00033636784 -0.03924806 0.0035411583
-0.01963642 -0.046440654 -0.050419096 -0.018175703 -0.06663129 -0.05664364 -0.0005026039 -0.05908835
0.08313182 -0.08339852 -0.039152145 0.01765355 0.019138426 -0.0009169606 0.018789118 -0.034621693
0.02048939 -0.078472316 0.032836825 -0.023340184 0.019517876 -0.08474773 0.08724098 0.014634349
0.048258975 -0.02538064 0.08177828 0.017412847 -0.014046286 0.033907745 -0.07200363 -0.023722453
7.3431176e-05 -0.008423055 -0.027402105 -0.13040763 0.020988118 -0.0633334 0.017491845 0.0330634
-0.0032061269 0.06352878 0.026581008 -0.051568817 -0.040054686 -0.054048654 0.00018209286 -0.023632493
-0.019765176 -0.025073178 0.004661086 -0.073645495 -0.07296613 -0.0055336733 -0.008620385 0.016647728
0.0019869616 -0.02248129 0.075448476 0.021859115 -0.08494495 0.021763511 0.048163638 -0.03786655
0.04887039 -0.050826292 -0.0063774027 -0.033697955 -0.020924604 -0.0025103078 -0.040813517 -0.08295692

network_body._body_endoder.seq_layers.2.weight f4 [128, 128]
00000000: 8f11 0a3e 7b08 eb3d e69b 8abc 7788 11be
00000010: 0227 33bd 6a7c 27be 1043 1ebd 6a0d de3c
00000020: 49d4 22bd e41a df3c d3ea 9ebd be39 503d
00000030: 954c debc 337d 343d 03b1 cebd cbbf 8abd
00000040: 1dd2 2fbe 696d 96bb 69b5 48be 2e0e a23d
00000050: e27f 1cbe d689 b13d 7760 b0bd fb13 a53d
00000060: 39a2 003e 7e98 a9bd 33cf 37bd 2627 02be
00000070: a2fd 3d3c aee4 d4bd b594 363e bf55 c33d
00000080: dc35 41be 2028 a93d 7e0a 6a3d 4065 1e3d
00000090: ee08 423b 5815 37bd b8b0 82bd 4e84 ae3d
000000a0: db30 dabd 30dc bdbd a9bb 2e3c f043 46be
000000b0: d222 f1bd 2e0d 7abe 03ef e13d 1c5a 0ebe
000000c0: c840 0a3d adfc 3abd 634f 343d 8b72 f0bd
000000d0: f0de 813d c228 2bbe 9c82 63be 9897 903d
000000e0: 0383 c13c 4611 3d3e 0fd5 20bc e6cd 18be
000000f0: 9937 17be 2b6a 2cbe 2eda 05be a15f 7e3b
00000100: e690 13bd f99d 233e 4844 66bd 5063 903d
00000110: c136 143d 078d 5bbc e65c 2abe aeef a8bd
00000120: 37a2 82bd a4ae 0ebe 2539 60be bb18 e73d
00000130: 88e6 633b 57b1 0bbc 8cb3 e0bd c28a 23bc
00000140: a318 bd3a 662a a9bd 24b4 3cbd 5001 0c3e
00000150: 2f62 3dbe c76d 5abe 4afe 0ebe b75a 54be
00000160: ad1b 1d3e aef4 6fbc 7821 243b 2d33 9d3d
00000170: 0a1b 7bbe 26ab f8bc 2695 85bd 2675 83be
00000180: 3ec6 9cbd 25cc 443d 0697 2ebd c8da 9f3d
00000190: 4e5f 3639 04c9 9b3b 8306 3abe d61d 293d
000001a0: feef 31be b529 423d 3c31 953c 15bd 8dbd
000001b0: e6d0 ae3c 3f36 36bd f27b e13c 48af 08bd
000001c0: 9b51 383d 0cf8 1bbe 876d 29bd bc71 e83d
000001d0: b384 d6bd 56ec 66be 5614 ac3d c987 16bd
000001e0: f2a1 bbbd f013 5dbc 5825 c1bb ce0f 2c3e
000001f0: f7cc 613d 2fa0 08be 07f1 0d3a 18b6 f5bc
00000200: 3e39 e3bd 596a 1a3e 6f67 4b3c a97c 2cbd
00000210: 32dc 9b3d 296d b63c 4efd e1bd 1ef1 a03d
00000220: 5357 a43a 8016 e2bc d009 6d3e 2890 48bd
00000230: cdd6 fdbd dccd 7bbd 2fc2 97be 507e fbbc
00000240: 265e a0bc e0b7 e3bd 883c 613c c467 723e
00000250: 6a3c 07bc 081a 063e 7764 e9bc d360 fbbd
00000260: 4e52 c9bd 4127 9a3d 147f 96bd 9ddd fa3c
00000270: 996e f1bb 4939 3cbc a82c 673d 0f49 92bc
00000280: 6bf4 c3bc 2509 2d3d e293 cbbd 4c6b 6dbe
00000290: ef1a bfbd 241f 88bd ec39 643d b07a cbbd
000002a0: 7aab 7d3b 1c90 e63d ad87 4cba ced1 0bbd
000002b0: 5319 683d d3f8 243e b9c7 9abd 22de 27bd
000002c0: 3b32 663d e89c abbd f2bd a93d 2bf5 173d
000002d0: 56c6 d5bd b681 183d 55ce 353d acc3 e13d
000002e0: f747 9a3d 7503 823d e001 b4b9 a122 e23d
000002f0: 2ec9 6c3d 6e48 903d 3550 133e e423 5a3c
00000300: 3ff0 bc3d d43d edbc a919 ec3a 611a d3bd
00000310: 5609 133e 60ca 32bd 892f 0ebe fb73 c1bd
00000320: 04ec db3d db63 373e fd16 fc3d 8cc1 28be
00000330: 29fc 4e3e f351 8fbd 70ed edbd 21f7 c2bc
00000340: 2301 f0bd f43b 82bd eeaa 3fbe 5f40 f13c
00000350: b67c b6bd cd50 77bd 6485 89bd ef19 3cbd
00000360: ba94 a4bd ce05 77bb 3944 99bc d61b 68be
00000370: 426d 1c3e e7b7 fe3d 5fa0 443d 3319 eebd
00000380: fa56 75bd d4c3 90bd 18c3 083d 75c5 2cbe
00000390: 78ae b5bb a9f6 24be c5f6 42bc 9b99 883d
000003a0: 7d4b 8c3d 0f21 45bd 5698 20bd 32cd 18be
000003b0: 9cb3 32bd 4846 8fbc 4eb3 9abd 8413 a8bd
000003c0: 4e23 d43d 4e00 f4bd c34a 5cbe f131 a7bd
000003d0: 91cb 12bd 7c5a ab3d 0b93 f5bd 4e75 09bd
000003e0: 8f9f 943e 5591 fc3d 26ef 36bc bd37 ecbd
000003f0: 7c78 4cbe d424 bd3c b078 7f3c 9b4c 8bbb
0.1348326 0.11476227 -0.016920041 -0.14212213 -0.043738373 -0.16356054 -0.038638175 0.027106006
-0.039753232 0.027234502 -0.07759633 0.050836317 -0.027136127 0.04406471 -0.10092356 -0.06774863
-0.17169996 -0.0045906794 -0.19600452 0.07912861 -0.15283158 0.08668868 -0.08612149 0.080604516
0.12561883 -0.08281039 -0.044875335 -0.12710246 0.011596115 -0.1039518 0.17830165 0.09537839
-0.18868202 0.08259606 0.057138912 0.03867078 0.0029607373 -0.04469809 -0.06381363 0.08521329
-0.1065385 -0.09270513 0.010664859 -0.19361854 -0.117742196 -0.2441909 0.11031916 -0.13901561
0.033753186 -0.045651127 0.04402102 -0.11740597 0.0634135 -0.16714767 -0.22217792 0.07060164
0.023622042 0.1846362 -0.009816422 -0.14922294 -0.14767303 -0.16837375 -0.1307151 0.0038814323
-0.036026858 0.1597823 -0.05621746 0.07050192 0.03618503 -0.013400323 -0.16637 -0.0824884
-0.06378596 -0.13933808 -0.21896799 0.11284014 0.0034774859 -0.008526168 -0.10971746 -0.009981813
0.0014426898 -0.0826004 -0.046070233 0.13672376 -0.18494485 -0.21330939 -0.13964191 -0.2073773
0.15342589 -0.0146457385 0.0025044363 0.07675777 -0.24522033 -0.030355047 -0.065225884 -0.25675315
-0.07654999 0.04804625 -0.042624496 0.07805401 0.00017392376 0.0047541875 -0.18166547 0.04128822
-0.17376706 0.047403056 0.018211953 -0.0692083 0.021339845 -0.044485327 0.027524922 -0.033370286
0.0449997 -0.15231341 -0.04136422 0.11349818 -0.10474529 -0.22551093 0.08402316 -0.03675059
-0.09161748 -0.013493523 -0.0058943443 0.16802904 0.05512711 -0.13342355 0.0005414639 -0.029994056
-0.110949025 0.15079631 0.012414797 -0.042111073 0.07610358 0.022268848 -0.11034642 0.078584895
0.0012538232 -0.02759862 0.23148274 -0.048965603 -0.123944856 -0.06147562 -0.29640338 -0.030699879
-0.019576143 -0.11119056 0.013747342 0.23672396 -0.00825415 0.13095868 -0.028490288 -0.12274327
-0.098301515 0.07527018 -0.07348457 0.030623252 -0.0073679206 -0.011488267 0.056439072 -0.017857103
-0.023920259 0.04224505 -0.09940316 -0.23185462 -0.09331309 -0.066465646 0.0557193 -0.0993551
0.0038706944 0.112579554 -0.00078021997 -0.034135632 0.056664776 0.16110544 -0.07557625 -0.040983327
0.056200247 -0.08379537 0.08288182 0.037099045 -0.1043822 0.037233077 0.044386227 0.110236496
0.075332575 0.063483156 -0.00034333672 0.11041761 0.057809047 0.07045065 0.14386065 0.013314221
0.09225511 -0.028960146 0.0018013018 -0.10307766 0.1435903 -0.04365003 -0.1388532 -0.0944595
0.10738376 0.17909186 0.12309072 -0.16480082 0.20213379 -0.069980524 -0.11617553 -0.02379948
-0.11718967 -0.063590914 -0.18717548 0.02944964 -0.089105055 -0.060379792 -0.06714895 -0.04592317
-0.0803618 -0.003769267 -0.018709289 -0.22666869 0.15276054 0.1243742 0.048004504 -0.116259
-0.0598974 -0.07068601 0.03338918 -0.16872199 -0.00554448 -0.16109718 -0.011899655 0.06669923
0.06850336 -0.04812723 -0.03920778 -0.14922026 -0.04362832 -0.017489567 -0.07553731 -0.08206847
0.10358296 -0.119141206 -0.21512894 -0.081638224 -0.035838667 0.08366868 -0.11990937 -0.033559136
0.29027984 0.123324074 -0.011165416 -0.11534069 -0.19967836 0.02308885 0.015592739 -0.0042510754

network_body._body_endoder.seq_layers.2.bias f4 [128]
00000000: 8b27 9abb 04a9 43bd 3646 a5bc d493 3f3c
00000010: 2785 ddbd 82b6 203d 9bb7 25bc 9fec fe3b
00000020: bdb0 d53d e355 c63d 2f5a 9a3d 7454 933d
00000030: e5b7 07bd 3cf9 a03c 6a6c 813d 4155 813d
00000040: 13e0 e23c 62a8 91bb 6d18 503d be40 4fbd
00000050: bc23 b03d 9a8d 8a3c 084b 08bd 845f 9939
00000060: b17b 803c d21a be3c a6e2 57bc 7532 db3c
00000070: df51 a2bb ad37 a23c 5e6d 223d b595 9b3c
00000080: 3c57 703d dbe2 85bd 3439 cebc 125b b03b
00000090: f4d6 8e3d dafc 6dbd a290 723b 15ff 593d
000000a0: a05c 023d 7298 51bd fbd4 993b 3ead 233c
000000b0: 3e07 5abc 9c8a b23c 3989 30bd be23 57bc
000000c0: e231 823d d7d5 573c 5956 033c 21f9 063d
000000d0: 4068 893d 2700 56bc 5597 8e3d 46a1 89bd
000000e0: fb25 0abd 33e6 353d a46b 4b3d 0760 963d
000000f0: 835a d83b af1b 2f3d df1f 23bd 4c74 98bc
00000100: 35f6 9bbc ff6d 643d b47b 333d 6d62 7a3d
00000110: c3bc dd3c b7c8 12bd 1ee9 a63d a631 6f3d
00000120: 9a01 c53c 226f 353c 4cd7 29bc 583e e3bb
00000130: 0e86 4d3c 4975 383c a112 fa3c 53f0 c83b
00000140: 265f 143d bdc5 9abb e428 943d 8e21 81bd
00000150: 7107 ef3c 3ad6 273c a618 403d d7d8 8b3c
00000160: 0676 6cbd 4b42 bdbb 18b3 943c 78fa 9abc
00000170: 11dd 1c3d 258a 133d f3b6 36bd 42ff 35bc
00000180: 1fed 143d 86a8 913d a74a d63b e35a de3c
00000190: 5245 103d 2649 263c cc3c 28bd c99d 363d
000001a0: 9c60 013d a34a 973b 2951 853d 0f6d e83a
000001b0: cee8 08bd 3d38 be3c 28ea 013c 75ef 483d
000001c0: 7966 5a3d 89db b3bd 6b10 fa3c 591e c93c
000001d0: ed4e 873c 821c 4dbd d81a 073d e6a4 073d
000001e0: d199 78bc ff78 563c 8434 cf3d 49f5 eabb
000001f0: 7a2a a83c ad08 33b9 6c0b 7b3d 4492 fb3c
-0.004704421 -0.047768608 -0.02017508 0.01169296 -0.108164124 0.039236553 -0.010114576 0.0077796723
0.10434101 0.0968435 0.075367324 0.071938425 -0.03313436 0.019650094 0.063195065 0.06315089
0.027694738 -0.0044451216 0.050804544 -0.050598852 0.08600566 0.016913224 -0.03327468 0.000292536
0.01568398 0.023206148 -0.013176596 0.026757458 -0.0049536075 0.019801939 0.039655082 0.018992284
0.058676943 -0.0653741 -0.025173761 0.00538195 0.06974593 -0.058102466 0.0037012477 0.05322178
0.031826615 -0.051170774 0.0046945787 0.009990035 -0.013307391 0.02179461 -0.043099616 -0.01313108
0.06357171 0.013173542 0.008016192 0.03295243 0.06709337 -0.01306156 0.06962458 -0.067202136
-0.033727627 0.04440899 0.0496632 0.073425345 0.0066025867 0.04275101 -0.039825317 -0.018610142
-0.0190383 0.055768963 0.043819144 0.061129022 0.027067548 -0.035835948 0.08149932 0.058396958
0.024048615 0.011073859 -0.010366272 -0.006934922 0.012544168 0.011258432 0.030526461 0.0061321645
0.036223553 -0.0047232793 0.07234362 -0.06305228 0.029178353 0.010243947 0.046898507 0.01707117
-0.057729743 -0.005775725 0.018151805 -0.018918261 0.038296763 0.036020417 -0.044608068 -0.0111082215
0.03635895 0.071122214 0.006539661 0.027142948 0.03522236 0.010149276 -0.041073605 0.04458407
0.031586275 0.0046170517 0.06509621 0.0017732697 -0.033425145 0.023220176 0.007929362 0.04905649
0.05332038 -0.087821074 0.030525407 0.024550604 0.016517127 -0.050076015 0.032984585 0.033116244
-0.015173391 0.013090371 0.101174384 -0.0071703536 0.020528067 -0.00017074002 0.06129019 0.030709393

action_model._discrete_distribution.branches.0.weight f4 [3, 128]
00000000: bf9e e4b9 5685 b73d 21b0 37bb 0841 ccba
00000010: 689f 953d 2d36 0d3d 4883 8abc f290 a3bc
00000020: 94c7 093c 81f1 193c 8357 a63c f3ef ca3d
00000030: 2fe0 9f3d 32bd 19bd ffe9 b7bd 5a67 01bd
00000040: 2d55 3b3c bac1 48bd 19ec 483b 8b79 5ebb
00000050: 0799 19bc b541 1dbb 69b2 4fbc 94d1 943c
00000060: 51a5 b43c 5c2c 80bc 1b3f b4bd 873f e2bc
00000070: 4b07 f5bc 7fa2 4939 c952 29bd 6d62 7bbc
00000080: be0d 523c 7cbf 0e3d 1437 5b3c 1a57 7b3d
00000090: 462d 7bba 89be dd3b 6546 253d 9f92 433d
000000a0: c622 6a3c df2e f83d 0a1a c63d d9f1 4bbc
000000b0: 1762 fb3c 4258 83bd 4e95 c63d bb8e 6f3d
000000c0: 7a93 d1bc 8bae 8ebd 18de d9bb 1b0f 0a3d
000000d0: 7a6a 033d 7975 13bd 81b6 7bbd e123 fe3b
000000e0: d8d6 333d 1f20 db3b 5672 823b 3c51 98bd
000000f0: 120c 643b e59e 8ebb 9d07 d23d 3b59 8f3d
00000100: 0b52 d13c d910 c3bd e80a f9bc b4b0 62bc
00000110: f9cb a0bc d6a4 e43c 50a5 8a3d 11ef 2f3c
00000120: 178b 4a3c 3509 36bc 84b3 533d 8277 8b3d
00000130: 8949 44bd a265 eebc c0f9 2bbd b71a 293c
00000140: 5f3b 963d c70d 7a3c f5ef 35bd 2ff9 b93d
00000150: ac38 743d 2d18 80bc 43eb 9c3c 0907 22bd
00000160: 8ee3 e13d 8274 b2bc 410c 263d b50a 63bb
00000170: 84a7 9a3d b6f0 d43a 3482 563d e2d7 4ebd
00000180: 8860 57bd 6502 f9ba bd65 813d fc1e a93b
00000190: 6813 943d dcbf e13d e577 5d3b d0e1 cabc
000001a0: 1cdc a5bd f89c 0d3d aa6b 61bd 6f76 703d
000001b0: 3b1d 513b 2110 d73b e8a1 483d 11c2 38bd
000001c0: 3105 46bc 26c9 993d a983 f1bc 65bb 1b3d
000001d0: b386 7abb 7ad8 a73b 9a8a 1abd ab9c 4ebc
000001e0: 561b 323d 0cf2 53bc 6fbd 62bd ce25 53bc
000001f0: f8b6 f5bc 354d 97bd 22d5 47bd 0572 34bd
00000200: 2198 e3bc 3808 25bc 8910 5c3d 28c2 19bd
00000210: 3ec6 80ba 4d43 d03c 49a4 6c3b dfc1 db3c
00000220: 2ca9 153b 73d4 323d 16e5 b1bd 95ef 6ebc
00000230: e904 d7bc e0cc 8ebd 1920 e13d cfe1 7abd
00000240: 12cf 4a3d 3a67 693d b5a8 563c a7da 283d
00000250: abee d6bd f374 a33c 7897 3c3d 6ebc 93bc
00000260: a43c b23d 029b a93d c2bf 9a3d d98d 9f3d
00000270: 88bc a0bd 9390 e5ba 5680 18bd bad0 613d
00000280: 3830 eabc 5306 183c b938 7a3d 2598 5c3d
00000290: 9667 bbbc e8f0 043d e3ad 9d3c 474c 363d
000002a0: 46d0 afbc 29df 47bd 44b2 02be 054f 8e3c
000002b0: bb01 84bd a50c a43c beaa 47bd f4a0 85bd
000002c0: b527 49bd e9aa 06bc 5158 8ebd 10fa e03d
000002d0: 472c 793c 52e3 dabd f2ca 343e 55a4 313d
000002e0: 84ce 95bc 6e44 50bd 7bf4 f7bc 82c9 ce3d
000002f0: 5d83 aaba 2429 b9bc 993e cdbc 3ea2 873c
00000300: cb40 e2bc 0814 023e 2a1f d1bc 4be1 8c3b
00000310: ddee de3d 31e4 393d b049 28bd cc9b 673d
00000320: de0b 3fbd cf12 c0bd b086 863c c667 92bd
00000330: 8981 5839 d5b0 f83d dc68 a3bd b3d0 a4bc
00000340: c383 86bd 3581 133d 0507 473d 4188 a1bd
00000350: 2cb7 0bba 5b71 7abc 7ff3 c13a ff33 35ba
00000360: 9e41 98bd 24df 12bd d850 6fbd a744 ad3b
00000370: 4402 5ebd c394 29bd d7d7 633d 1ab2 323d
00000380: 36f8 c3bd 7e87 db3d 50be b4bc 6653 8abd
00000390: 063c d4bc 6169 34bc 97c5 c8bd 9912 8dbd
000003a0: 79ed 073e d178 fcbd 5f1c 433e b4eb 573c
000003b0: 2ed2 fe3a f215 acbd 0549 9e3b c1c9 81bd
000003c0: 567c 123d e9e6 f2bc 75b6 863d 728f 04bd
000003d0: e74a eb3c b7ef 4d3d 0f88 b1bb 780e 243e
000003e0: 9eab 2c3d cdaa 1f3d 67cf 0f3e 48a6 42bd
000003f0: 1f3b a73d 550d ce3d b030 ac3d 42fe 55bd
-0.00043605824 0.08960979 -0.0028028565 -0.0015583346 0.07305795 0.034475494 -0.016908303 -0.019966576
0.0084094 0.009395958 0.0203054 0.09909048 0.078064315 -0.037533946 -0.08980178 -0.031592704
0.011433882 -0.049012877 0.0030658303 -0.0033946957 -0.0093748635 -0.0023995463 -0.012676814 0.01816634
0.022051485 -0.015646152 -0.08801099 -0.027618183 -0.029910704 0.00019229388 -0.041338716 -0.015343291
0.012820659 0.034850582 0.013379831 0.061362363 -0.00095816364 0.0067670983 0.040350337 0.04774725
0.014290517 0.12118315 0.09672935 -0.012447798 0.030686421 -0.06413318 0.09696446 0.058485728
-0.025583018 -0.06966885 -0.00664879 0.033705812 0.032083966 -0.036000703 -0.061453346 0.007755742
0.043906063 0.0066871787 0.003980915 -0.07437369 0.0034797234 -0.004352438 0.10255358 0.06999441
0.025551816 -0.09524698 -0.030400708 -0.013836075 -0.019628512 0.027910631 0.06769812 0.01073815
0.012362263 -0.011110594 0.05168487 0.06809904 -0.04792169 -0.029101197 -0.041986227 0.010321311
0.07335543 0.015262074 -0.044418294 0.09080731 0.05962436 -0.015636528 0.01915515 -0.03955749
0.11029731 -0.02178407 0.04053903 -0.0034643833 0.07551482 0.0016246054 0.052370265 -0.05049885
-0.052582294 -0.0018997906 0.06318233 0.0051611643 0.07230264 0.110229224 0.0033793387 -0.024765879
-0.08098623 0.034573525 -0.055034317 0.058706697 0.0031908292 0.006563202 0.04898253 -0.04510695
-0.012086199 0.07509069 -0.029481726 0.03802051 -0.003822726 0.0051222416 -0.037729837 -0.012610595
0.0434831 -0.012936126 -0.05535644 -0.012887431 -0.029994473 -0.07387773 -0.048787244 -0.04405405
-0.027782502 -0.01007276 0.053726707 -0.037538677 -0.0009824706 0.025422717 0.0036108664 0.026825843
0.002283643 0.04365964 -0.08686273 -0.014583488 -0.026247459 -0.069726706 0.1099245 -0.061250504
0.049513884 0.05698321 0.013101746 0.041224148 -0.10494741 0.019953227 0.04604289 -0.018034186
0.087029725 0.082815185 0.07556106 0.07790727 -0.078484595 -0.00175144 -0.037231766 0.055130698
-0.028587446 0.009278852 0.06108925 0.053856034 -0.022876542 0.03245631 0.019247955 0.044506337
-0.021461617 -0.048796806 -0.12763315 0.017371664 -0.064456426 0.02002556 -0.048746817 -0.0652484
-0.049110133 -0.008219459 -0.06950439 0.10985196 0.01520831 -0.10687889 0.17655542 0.04336961
-0.01828695 -0.05084651 -0.030267945 0.10097028 -0.001300912 -0.022602625 -0.025054263 0.016556855
-0.027618786 0.12702954 -0.025527555 0.004299318 0.10885403 0.045383636 -0.0410859 0.056545064
-0.046642177 -0.093785875 0.016421646 -0.071486995 0.00020647621 0.12143103 -0.07978985 -0.020119047
-0.065681 0.036011893 0.04859068 -0.078873165 -0.0005329724 -0.015285815 0.0014797299 -0.000691235
-0.074343905 -0.035857335 -0.058426708 0.005287725 -0.05420138 -0.041401636 0.055625763 0.043626882
-0.09568827 0.107192025 -0.022063404 -0.06754188 -0.025907528 -0.011011452 -0.09803312 -0.06888313
0.13274182 -0.123277314 0.19053791 0.013178755 0.00194413 -0.08402623 0.004830482 -0.0633731
0.035763107 -0.029651122 0.0657777 -0.032363363 0.02872224 0.050277438 -0.005417831 0.16021144
0.042155854 0.038981248 0.14043961 -0.04752186 0.08165573 0.10061137 0.08407724 -0.052244432

action_model._discrete_distribution.branches.0.bias f4 [3]
00000000: f20b c5bd c40b 2f3d 8d92 553d
-0.09621419 0.04273583 0.052141715

action_model._discrete_distribution.branches.1.weight f4 [3, 128]
00000000: 9c0b 463c 845a 063d 85db 733d 74c8 f33b
00000010: 98ec 963d fee9 423d 9de0 153d 111d 273d
00000020: 8a2e 113a 4b12 92bc 44e5 ebbc 1caf c6ba
00000030: 4205 e03c 4d5c 7e3c 745b dfbc 4cde 71bc
00000040: 79a3 cabb 21fc 82bb c54d 22bd 0ba5 973c
00000050: 73a6 58bd 20dc 7dbb f94b 0a3d d1b1 5ebd
00000060: 1e97 8f3d 8462 a53c 7aaf 383d 501a 433d
00000070: 7331 be3b b7c9 8b3c a1cd 56bc 12ed 883c
00000080: f46e f0bc 00cf 0f3d bd72 c0bb 5728 803d
00000090: 7ac8 a5bd 172b f63d 7486 7cbd 3756 0bbc
000000a0: 1e3d 9aba f847 343c 70c6 debc 8075 953b
000000b0: 41d7 873d 3961 953c f41c 9d3d 3de4 7e3d
000000c0: cfd2 10bd 5cc3 94bc 9bf4 6b3c aa07 143d
000000d0: 25a7 213d 5079 ed3c f3ad f3bb 6cd6 fc3c
000000e0: 1ec7 543c d910 0fbd 61b4 55bd 9da2 c6bb
000000f0: f4e6 b23a f820 93bc 7d7f d83c e82a e43d
00000100: d775 fd3d 52c9 2c3c 136f 243d e43d eabc
00000110: 2a6f 4e3d 6eff 8e3b 1f9c f4bd 44d0 2e3d
00000120: 556c 74bb 55a4 5e3d 3275 1dbd 04cb 883d
00000130: be7e 87bc 8365 103d 3064 203c 0253 143d
00000140: a380 d13b 2640 d93c 4a7a 90bc 3d02 733d
00000150: 08f1 8f3d 1700 d43c ff9f 86bb 9184 063d
00000160: 027d 303d 6d4e 1d3d f9c2 483d ed49 233d
00000170: 61b4 95bc 9cbb 8c3c aae6 1ebc 02ed 31bd
00000180: 614d dc3c c168 313d cfdf a7bd f235 50bd
00000190: 9887 4f3c 76d5 f2bc 719a ea3c 2acd c03a
000001a0: 1b33 673d 57d7 f9bc 1dbb b23b 2615 a63d
000001b0: ec8d d63d ea7b b33d fcb2 873b c3be 3fbd
000001c0: 392a 96bc 5dc9 9e3c b1d5 84bc f825 d4bc
000001d0: af62 24bd 00ad c83d 17fc bfbc 3be9 f93d
000001e0: 773c 863c 7a53 b13c c4fd ffbc 5ed9 5fbb
000001f0: 1f69 ec3c 4d29 c5bc 986d c33b 4d79 8fbb
00000200: 8b05 713d 3d70 c53b 09ec 043d e5a5 90bc
00000210: 98c1 6ebd 7bae 5fbc 514b f7bd cb44 06bd
00000220: ccce 2a3e e3cd dc3d 777e fb3d 14db 083e
00000230: 0353 b9bd 9da6 20bc 2bab 0d3d 6f69 a5bd
00000240: 642e 1cbc 7ad9 843d bd2b d3bd bcce 63bd
00000250: 0b00 e43d c27d c33d 2de6 5d3d 7848 f23d
00000260: 470b 4dbc d461 423d 8066 c0bc ea85 203c
00000270: c75e 09bc 6257 c83d f6e3 52bd 4a01 5cbd
00000280: e7ac 1abe 399d 4bbd 5c21 103d 4a53 93b8
00000290: d1dc 683d 3ff7 a5bd ec3c a73d c49d 6e3d
000002a0: e736 b33d aabe 20bd af3f b9bc 66c2 5b3d
000002b0: 5dca acbd c5d0 f93c beda 1cbc e26f 25bd
000002c0: 69de 8f3d 7461 83bb 698e 4a3d 2f3d bebb
000002d0: 9cad db3d 2f1f a7bc 1b3c 12bb 992d 13bd
000002e0: 7478 2a3d e4a6 b83d 685e 113e d940 a83c
000002f0: e266 2d3d 2f0f db3d efd9 3ebb 8530 1ebd
00000300: d962 1abe 62a3 763c 4611 cb3d fa0e b9bd
00000310: 7c2d aa3b f03b ecbc 0ba4 083e 723f e43a
00000320: cc03 2dbd 0f38 33bd d299 b83d fbb4 7aba
00000330: b08d 1c3c 974a 74bd 59fe f83c 5283 d1bd
00000340: 20cc bc3d e267 3dbc 3615 e33d 69ed 9bbd
00000350: 2b0c c3bc 6683 2bbe 1aac 92bd 07be 6b3d
00000360: dbbf fcbc 7bd1 6f3d b61a 343c 53ba 923c
00000370: fa77 b23d f75f c2bd e5f3 3b3d 4d59 1f3d
00000380: e1b0 babc b58a aa3c 8431 8f3b 26f8 bc3d
00000390: e3e7 a23d 2f68 943d 5a42 d9bb bc80 a03d
000003a0: 58b9 153c 3257 703d 6928 2a3d b714 ba3b
000003b0: a68b c0bd a89c 763c 3147 fc3d 9770 623d
000003c0: d6d9 70bd 8ade b43b 2aa9 c93d ebee c73d
000003d0: 107e 07be 6d75 9ebd 0c85 2ebd 8058 90bd
000003e0: 2172 203d 92e0 e4bd a95f 0a3d 289f 103d
000003f0: e0f6 a4bd 14fb 0fbc 7084 e7bb 7e45 493c
0.012087729 0.032801166 0.059535522 0.0074396674 0.073693454 0.047586434 0.03659116 0.040799204
0.0005538246 -0.017830988 -0.028795846 -0.0015158388 0.027346257 0.015524936 -0.027265288 -0.014762472
-0.0061840382 -0.0039973413 -0.039624948 0.018511316 -0.052893113 -0.003873594 0.03376386 -0.054368798
0.07011245 0.020188577 0.045089222 0.047632515 0.0058042346 0.017063959 -0.013110549 0.016714606
-0.029349782 0.03510952 -0.005873053 0.06257694 -0.080948785 0.120199375 -0.061651662 -0.008504442
-0.0011767482 0.011003487 -0.027194232 0.004561126 0.06632853 0.018234836 0.07671538 0.062229384
-0.035357293 -0.01815956 0.01440158 0.03614012 0.039466042 0.02898851 -0.007436508 0.030863963
0.012986926 -0.034928177 -0.052173976 -0.0060618655 0.0013649152 -0.017960057 0.026427979 0.11140996
0.12375992 0.010546045 0.04014499 -0.028593965 0.050398983 0.0043639457 -0.1194384 0.042679086
-0.0037296016 0.054355938 -0.038441844 0.06679347 -0.016539928 0.03525306 0.009789512 0.036211975
0.0063935085 0.026519846 -0.017636437 0.059328306 0.07028395 0.02587895 -0.0041084285 0.03284127
0.043087967 0.03840487 0.049014065 0.039865423 -0.018274488 0.017179303 -0.009698549 -0.04343892
0.026892366 0.04331279 -0.08196985 -0.050832696 0.012666605 -0.029642802 0.028638097 0.0014709581
0.056445222 -0.03049819 0.0054544345 0.081095025 0.10476288 0.08763869 0.0041412096 -0.046812784
-0.01833068 0.019383127 -0.016215177 -0.025897011 -0.040133175 0.09798622 -0.023435635 0.12202688
0.016386254 0.02164625 -0.031248935 -0.003415666 0.02885872 -0.024067545 0.0059639923 -0.004378474
0.058843177 0.0060253427 0.032451663 -0.01765723 -0.058290094 -0.013652439 -0.12074912 -0.03278045
0.16680449 0.10781457 0.12279981 0.13364822 -0.09049036 -0.009805349 0.034587067 -0.080767505
-0.009532545 0.06486793 -0.10311077 -0.05561708 0.11132821 0.09545471 0.05417459 0.118302286
-0.012514896 0.047456577 -0.023486376 0.009797553 -0.008384413 0.09782292 -0.05148693 -0.053712167
-0.1510502 -0.049710486 0.035188064 -7.02502e-05 0.056851212 -0.08103799 0.08165917 0.058255926
0.08750706 -0.03924433 -0.022613375 0.05365219 -0.08437035 0.030495057 -0.009573637 -0.040389903
0.07024843 -0.00400942 0.04945222 -0.0058056335 0.10726473 -0.020400612 -0.0022313658 -0.035932157
0.04161878 0.09016207 0.1419617 0.020538734 0.042334445 0.106962554 -0.0029121598 -0.03862049
-0.1507677 0.015053602 0.09915404 -0.0903606 0.0051934104 -0.028837174 0.13343827 0.0017413928
-0.04223995 -0.043754634 0.09013714 -0.00095637114 0.009555265 -0.059641447 0.03039472 -0.102301255
0.09218621 -0.011560412 0.1108803 -0.07613642 -0.023809513 -0.16749343 -0.07161732 0.05755427
-0.030853203 0.058549386 0.0109926965 0.017911112 0.0871429 -0.0949096 0.045886893 0.038903523
-0.02278942 0.020818094 0.0043699164 0.09227018 0.07954385 0.07246434 -0.006630224 0.07837054
0.009138428 0.058676906 0.041542444 0.005678739 -0.09401636 0.015051998 0.12318266 0.055283155
-0.058801495 0.005519693 0.098467186 0.09762367 -0.13231683 -0.07737241 -0.042607352 -0.0704813
0.03917134 -0.11175646 0.033782635 0.035308033 -0.080549 -0.008787889 -0.0070653483 0.012284635

action_model._discrete_distribution.branches.1.bias f4 [3]
00000000: daf0 97bd 9b0b 473d a44e 053d
-0.07418986 0.048595052 0.0325457
