PillarGame/Assets/Models/ppoModel.onnx (onnx, 110359 bytes, 9 tensors)

discrete_action_output_shape f4 [1, 2]
000000 00 00 40 40 00 00 40 40
       3.0 3.0

network_body._body_endoder.seq_layers.0.weight f4 [128, 74]
000000 d6 67 36 be de 56 b8 bc 81 ec b1 3d a8 8b 1c bd
       -0.17813048 -0.022502359 0.08687688 -0.038219124
000010 1d ee e7 3d be ab c4 bd 5d f0 c7 bd 70 7a 59 3e
       0.113247134 -0.0960307 -0.097626425 0.21238112
000020 b1 20 1b bd e1 eb 58 be fc 0d 56 be 3d aa 40 3e
       -0.037872974 -0.2118373 -0.20903772 0.18814941
000030 2a 09 b0 3e 0f ce a5 3d c6 7f fe 3d ae c0 37 be
       0.34381992 0.08095943 0.124267146 -0.17944595
000040 45 0f 2c be 3a f4 7a 3e 07 45 ed bd 88 24 3a bc
       -0.168027 0.24507228 -0.115854315 -0.011361249
000050 7f 4e 90 bd 22 84 34 3e 7d 28 49 3e 68 91 1e 3e
       -0.07046222 0.1762853 0.19644351 0.15485156
000060 6e d7 4f be 18 c1 7a 3d c8 0c 5b be 83 2a 19 3e
       -0.20297024 0.061219305 -0.21391594 0.14957623
000070 09 90 ee 3d 28 b4 d9 3d 77 48 a4 bc 9a cd 2c bd
       0.11648566 0.10630065 -0.020054085 -0.042188264
000080 a1 c3 0b 3e 97 00 08 be 25 0b 25 3e 21 83 33 bd
       0.13648845 -0.13281475 0.16117533 -0.043826226
000090 eb 70 50 bd 77 4e 04 3d 51 5c 37 3e 76 0c 16 bd
       -0.050888937 0.032301392 0.1790631 -0.036632977
0000a0 4a 09 58 bd c9 58 c5 bd cc 82 f7 bc 5e 27 03 be
       -0.052743234 -0.09636075 -0.030213736 -0.12807986
0000b0 a9 44 d2 bc e8 c9 9e 3e 95 07 c8 be 6f 41 4b 3e
       -0.025667505 0.31013417 -0.39068285 0.1984918
0000c0 45 92 ae bb c8 8a 23 be d5 9e 75 3d a2 cc 87 3d
       -0.0053274953 -0.1597091 0.059965927 0.066308275
0000d0 49 6e ab 3d e9 cf 9c 3d 33 e5 ee bc 36 83 12 3d
       0.083706446 0.07656843 -0.029162025 0.035769664
0000e0 54 41 c7 bd 90 41 dc 3d 0d 90 b4 3c 9c 1e 53 be
       -0.09729257 0.107546926 0.022041345 -0.20617145
0000f0 31 59 b8 3d f2 3e d8 bd 3c 45 d3 bd 36 6b ee bb
       0.09001387 -0.10558881 -0.1031594 -0.007275964
000100 70 94 66 bd 19 2e 09 3e 45 03 8b bd 12 8a 1b bd
       -0.056293905 0.13396491 -0.06787733 -0.03797347
000110 b3 60 05 be 7d e2 d2 bd 0e 73 61 bc b1 50 07 3e
       -0.13025169 -0.102971055 -0.013760341 0.13214375
000120 22 32 3a bb e7 35 3d be d8 7a e4 bd e9 ed 9d 3d
       -0.002841123 -0.18477593 -0.11156243 0.077113934
000130 0d 4e 3c be 2f f8 09 bc 12 81 66 bd 81 74 04 be
       -0.18389149 -0.008420988 -0.056275435 -0.12935068
000140 f4 53 d2 bd b4 c9 60 be f4 15 9c bc 2a e8 35 3d
       -0.10269919 -0.21951944 -0.019053437 0.044410862
000150 42 9b 9c be 47 6b 08 3e ec 5c 8b be 8c 57 01 3f
       -0.30587202 0.13322173 -0.2721933 0.5052421
000160 a6 f7 e4 3b f4 c8 56 bc a8 be 01 3a cb 2e 36 be
       0.00698753 -0.013109434 0.00049493695 -0.17791288
000170 52 69 06 be d6 a7 e4 3d 5e fc 23 3e be 61 2c 3d
       -0.13126114 0.11164825 0.16014239 0.0420854
000180 55 5f 47 bd dd 1f b0 3c d9 d3 81 3b cc fa b2 3d
       -0.0486749 0.021499569 0.003962022 0.08739242
000190 5f a8 c4 bd b7 ca fa bb 77 ce cc 3c 54 56 a6 3d
       -0.09602427 -0.00765356 0.025000794 0.081219345
0001a0 9a 8a bd bd 81 85 26 3e 58 45 44 bd f2 96 a3 3d
       -0.09254952 0.16261865 -0.047917694 0.07987775
0001b0 bf 86 94 3d 3e b6 58 3d 41 7f 88 be ad 39 10 be
       0.07252263 0.052908175 -0.26659587 -0.14084502
0001c0 0d e2 31 3e f4 a7 36 be 4e 64 fc bc ab 9e 6c 3d
       0.17371388 -0.17837507 -0.030809548 0.057768505
0001d0 aa 12 28 3d 66 8c b3 3d 16 c3 4e 3d 67 e8 55 bd
       0.041033424 0.08767013 0.050479017 -0.05222359
0001e0 59 f7 63 bd da 31 a5 bd 54 0a bb 3d a2 c6 89 be
       -0.05565581 -0.08066149 0.09132829 -0.26909357
0001f0 f7 a0 4a be d5 95 68 3e 28 53 e5 bd 1f 5f 4d bc
       -0.19787966 0.22713406 -0.111975014 -0.012534886
000200 e6 3f c1 3d d8 9b 6f be 5e 96 8d bd 16 cb 23 bd
       0.09436016 -0.23399293 -0.06913446 -0.0399886
000210 50 6f a1 bd 84 37 34 bd 6b 2f 0d 3e ed 6f f3 bc
       -0.07882559 -0.043998256 0.1378762 -0.029716456
000220 78 56 6d 3e 8c 1f 1a 3e 80 31 3b bd 9a 0d e7 bc
       0.23177516 0.15051097 -0.045701504 -0.028204728
000230 c0 98 39 ba b3 e7 93 bd 53 43 b9 3d 68 83 52 be
       -0.00070799515 -0.072219275 0.09046044 -0.2055794
000240 e5 6c af 3d 0e 9d 22 be f0 e6 a6 bd 7c 70 02 be
       0.08565692 -0.15880224 -0.081495166 -0.12738222
000250 5d 26 34 be af bf 8b be da 46 70 3d 7f 3e ab bd
       -0.1759276 -0.2729468 0.05866132 -0.083615296
000260 b4 ff 6f bc 42 3b 13 bc 71 68 48 bd 4f b1 8e bd
       -0.014648367 -0.008986296 -0.048927728 -0.06967413
000270 1a 02 69 bd 4d af 9d bb d3 2b 04 be ea 0c 26 be
       -0.05688677 -0.0048121572 -0.12907343 -0.16215864
000280 f1 c5 44 3e 07 e1 5e 3b 30 bc 98 bd 0c 77 8e 3d
       0.19216134 0.0034008638 -0.07457769 0.069563
000290 b2 3e dc bd 2c 76 86 bd 7e ef 54 be 3d bf c4 bc
       -0.10754146 -0.06565508 -0.20794484 -0.02401697
0002a0 e3 66 54 3e 41 3d 7f bd af c5 19 be 09 5c 5a bd
       0.20742373 -0.062314276 -0.15016817 -0.053310428
0002b0 aa 5a 04 be d5 e5 c1 bd ce a9 b0 bc 54 83 02 be
       -0.1292521 -0.09467665 -0.021565344 -0.1274541
0002c0 67 d3 d0 3c 04 91 34 3b 7a d0 81 3d 56 e3 4c be
       0.02549143 0.0027552256 0.06338592 -0.20008597
0002d0 c1 e8 24 3e f8 73 c5 bd 35 7a b7 3d 06 1f 61 3e
       0.16104414 -0.0964126 0.08958856 0.21984491
0002e0 bf 06 13 3d 3f e2 f7 3d 2a a0 c0 bd a7 9f 19 3c
       0.035895105 0.121037 -0.09405549 0.009376443
0002f0 66 32 06 be 47 c8 08 3e 13 19 37 3e cc dd 10 3c
       -0.13105163 0.1335765 0.17880659 0.008841943
000300 c7 6c 43 3e c8 b9 32 be de 2e 45 3e c9 c9 76 3e
       0.19084464 -0.17453682 0.1925616 0.24100412
000310 65 92 e2 bd 0c d6 6a bd 3c 47 d3 be 1f 72 4e 3e
       -0.11063079 -0.057333037 -0.41265285 0.20160721
000320 cd eb 78 3e 56 45 8a bd 75 eb ed 3d 96 e5 cd bc
       0.24308701 -0.06751506 0.116171755 -0.02513389
000330 09 31 35 bd dd 8b 5a 3e 19 35 03 3e 7b fd 88 3d
       -0.044236217 0.21342416 0.12813224 0.066889726
000340 cc a4 0d be 80 3b 4d 3d 24 9f 85 3e 85 f6 1f 3d
       -0.13832396 0.05010557 0.26097977 0.03905346
000350 a6 00 94 bd 02 bb d0 3d 75 8d 22 3d 7e cd 26 bd
       -0.07226686 0.10191919 0.039685685 -0.040723316
000360 3a 73 44 be 83 f2 90 be 90 3f 1d bd f5 1d 26 3b
       -0.1918458 -0.28310022 -0.038390696 0.0025347446
000370 a9 1d 0a 3e e7 31 0d 3e 8c 4d 14 3e b7 71 e1 bc
       0.13487877 0.13788567 0.14482707 -0.027520044
000380 4f f1 1c be 32 23 ca 3b 47 f1 a7 bd 8f 95 9a 3e
       -0.15326427 0.0061687464 -0.08200317 0.3019223
000390 39 93 0e be cf c0 b8 be c4 26 88 bd 36 f4 3a 3e
       -0.13923348 -0.360846 -0.06648019 0.18257222
0003a0 08 7b 0b 3e b7 a6 3f 3d 32 58 e6 bd 52 65 1a 3e
       0.13621151 0.04678985 -0.11247291 0.15077713
0003b0 30 e1 40 3d ae c8 1a 3e 59 94 82 bd d0 d1 b1 be
       0.047089756 0.15115616 -0.06375951 -0.34730387
0003c0 67 72 d7 3c db 44 01 be 22 ab 44 3d 2e 9f 1d be
       0.026299668 -0.12623923 0.048014767 -0.15392753
0003d0 16 06 c0 3c 7c c4 19 be 06 51 b0 3d ba 2a 88 3e
       0.023440402 -0.15016359 0.08609204 0.26595098
0003e0 63 f1 4b 3d 9c a5 94 be f2 d5 67 bd 73 52 a5 bd
       0.04979075 -0.290326 -0.05660052 -0.080723666
0003f0 bd 06 50 3c 96 49 a2 3c 61 99 d3 3d 05 cf 0b 3c
       0.012696919 0.01981048 0.10331989 0.008533244

network_body._body_endoder.seq_layers.0.bias f4 [128]
000000 10 8d d6 bc c1 f9 04 bd e8 cd 62 bb 5e db 52 3d
       -0.02619031 -0.032464746 -0.0034607593 0.051478736
000010 42 3f 71 bd ab e4 5f bc d3 8f dd bd 8e 65 e3 bc
       -0.058898218 -0.013665359 -0.10818448 -0.027758386
000020 61 02 1d 3d cd 40 87 3c 98 6d 69 3d af 8c 03 bd
       0.038332347 0.016510392 0.056989282 -0.03211659
000030 0b 7b 0d bd 61 f7 87 3d 89 e6 3f bd 57 e7 e3 3c
       -0.03454117 0.06638981 -0.046850715 0.027820272
000040 6c 0c b3 bc 78 d0 1a bd 2e f7 b9 bc c1 b5 9d 3c
       -0.02185651 -0.037796468 -0.022700872 0.019251706
000050 63 bd bc bd b5 2e 67 bc 50 d2 46 bb 92 0c a5 bb
       -0.0921581 -0.014110257 -0.0030337758 -0.005036899
000060 d4 2c 92 3d 52 3c 20 3d 58 75 02 bd 39 3b 8e 3d
       0.071374565 0.039120026 -0.03185019 0.069448896
000070 f7 1b 73 bc 05 5d 85 bc f4 3c 85 bd aa 3d df bb
       -0.01483821 -0.016279707 -0.065057665 -0.006812771
000080 00 2d 48 39 b7 2d 0c bd 74 b6 86 3d 82 a6 2b 3d
       0.0001909025 -0.034223285 0.06577769 0.04190684
000090 7a 97 a0 bc 10 77 e5 ba b8 c4 60 bc be a7 a3 bb
       -0.01960348 -0.0017506797 -0.013718776 -0.0049943617
0000a0 07 24 a7 bc e4 fa 09 3d 2b 03 21 bd 1f c3 c5 bd
       -0.020402921 0.033686534 -0.03930966 -0.09656357
0000b0 a3 c1 64 3d 18 cc bc bd 1a 62 8e bc 4c af db 3c
       0.05584873 -0.09218615 -0.017380763 0.026816987
0000c0 00 b7 94 bc 19 a6 83 3d f0 4e 0e 3d 59 71 4e bd
       -0.018153667 0.06428165 0.03474325 -0.050401065
0000d0 93 72 68 3d 91 9b 86 bd 46 c0 96 bd 7e 94 f5 bc
       0.05674989 -0.06572641 -0.07360892 -0.029978033
0000e0 7c 5d dd bc df 6d 49 3c c6 6e 91 bc 28 d7 80 3d
       -0.027022116 0.012294262 -0.017753016 0.06291038
0000f0 4c b5 76 bd d4 35 1f bd b1 2a af bb bf 2c da bc
       -0.060231492 -0.038869694 -0.0053456654 -0.026632665
000100 61 19 1a 3c bf db de 3a 49 11 bd 3c eb b4 d4 3c
       0.009405465 0.0017002745 0.023079531 0.025965175
000110 b4 6a bf bb 06 69 74 3d 5c 84 0c 3d d0 4c 4b 3d
       -0.0058415774 0.05967047 0.034305915 0.0496338
000120 a1 25 87 3c 96 5e 34 bd f6 c3 ab bd 14 e7 47 bd
       0.016497435 -0.044035517 -0.08386986 -0.048804358
000130 5c 94 11 3d 66 40 89 ba eb 08 d1 bc be ce 3c 3c
       0.035541877 -0.0010471463 -0.025516948 0.011523901
000140 ae 50 7a bd 8e fb a5 3b ab d1 23 bd 51 25 2a bd
       -0.0611121 0.005065388 -0.039994877 -0.041539494
000150 44 a9 eb bc 24 25 37 3c 84 09 2d 3d 7c f4 07 3d
       -0.028767236 0.011178289 0.042245403 0.033192143
000160 85 7a 48 bc 12 3a 23 3d 5e e8 a2 3b b4 91 20 3c
       -0.012236242 0.039850302 0.004971548 0.009800363
000170 3e 6d 46 bc 3f f0 e0 3c ec 4c 0a bd d3 03 da 3c
       -0.012111006 0.027458308 -0.033764765 0.026613152
000180 26 5c b7 3c ee 11 8e bd 81 49 11 3c 57 e2 cf bd
       0.022382807 -0.069370136 0.008867622 -0.10150593
000190 c1 0d 97 bd 34 4d 58 3d 5a 1b 0c 3d ad 4a 09 3d
       -0.0737567 0.052808 0.034205772 0.033518482
0001a0 1c 8b 58 bc f7 76 a6 3c 61 38 42 3b ff 71 ff bb
       -0.01321676 0.020320399 0.0029635655 -0.007795572
0001b0 64 d0 44 bd af f8 a6 bd a9 d0 80 3d a3 59 32 bd
       -0.0480503 -0.081529014 0.06289799 -0.043542515
0001c0 8a 8f 61 bb 8d c9 18 bd 1c 16 98 3c 36 43 e8 3c
       -0.0034417831 -0.03730159 0.01856523 0.028352361
0001d0 3d bb 53 3c 32 2d 4b bd 40 7d 4a bb 34 1b d7 bb
       0.012923059 -0.04960365 -0.0030897409 -0.006564522
0001e0 37 c3 bd bc 08 37 33 3d fa b7 9c bc f9 16 e1 bb
       -0.023164375 0.043753654 -0.019130696 -0.0068691936
0001f0 53 06 8f bc 8f e0 ad bd 7b 4f da 3c 06 bc b4 bc
       -0.01745907 -0.08490097 0.026649227 -0.022062313

network_body._body_endoder.seq_layers.2.weight f4 [128, 128]
000000 f4 93 f7 bd 3a 93 4f be d2 9f 55 be 49 ee 8b bd
       -0.12088767 -0.20271006 -0.20861748 -0.06832559
000010 04 41 92 bc c6 1a 11 bc 0d 6d 8b 3b c8 ad f4 bd
       -0.017853267 -0.008856481 0.004254943 -0.11947209
000020 37 ae 56 bc f4 e2 5b be 00 29 a2 3d 86 fc 55 be
       -0.0131030595 -0.21473294 0.079179764 -0.20897111
000030 07 81 36 bb e4 1b f1 bd 5a 6a 69 bd ff 94 a5 3d
       -0.0027847902 -0.11772898 -0.05698619 0.080850594
000040 39 7e 0d be c6 1f cd bb 9e 5b 52 3b c1 e2 d9 bd
       -0.13817681 -0.006259891 0.0032098065 -0.10638953
000050 45 bb 97 bd 54 68 48 bd c0 6b 18 be f8 50 2e be
       -0.07408766 -0.04892762 -0.14884853 -0.17023075
000060 9c 9c 8b 3e c0 31 6b bd f5 61 25 be 6e b6 cd bb
       0.2726792 -0.057420492 -0.16150649 -0.006277851
000070 5c 54 b5 3d 39 f8 25 be 92 e0 39 be 43 f4 84 be
       0.08853981 -0.1620797 -0.18152073 -0.25967607
000080 0d 26 2a be 5c 8d 80 be fd dc 6c be ee dd 6d 3d
       -0.16616078 -0.2510785 -0.23131175 0.058072977
000090 4a cc 79 3e e5 e6 6d bd d3 a8 c2 3d b6 9f 59 bd
       0.24394336 -0.058081526 0.09504857 -0.053130828
0000a0 48 ba 00 be aa 0b 81 be f4 b4 9b bd 7e 4b 51 3e
       -0.1257106 -0.2520421 -0.076028734 0.20438954
0000b0 62 1b 02 3e 2f c9 1f be 7e 84 86 3d 52 2a 18 3e
       0.12705758 -0.15604089 0.0656824 0.14859894
0000c0 2b db cc 3c f2 0c 2e be 00 44 7f be dd a5 39 be
       0.025006851 -0.16997126 -0.24928284 -0.18129678
0000d0 19 1e b5 be 1c fa 42 be 9e b4 64 be 95 96 42 be
       -0.35374525 -0.19040722 -0.22334525 -0.19002755
0000e0 37 06 2b be c3 ed 8d be 12 01 b3 bd bd b0 22 be
       -0.1670159 -0.2772046 -0.087404385 -0.15887733
0000f0 51 e7 9c bb 44 80 07 be 00 69 f8 bc 01 cf 56 be
       -0.0047883173 -0.13232523 -0.030323505 -0.20977403
000100 4c b3 0e be 2c 7b a1 3c 95 11 5a bd dd 85 18 3d
       -0.13935584 0.019712053 -0.053239424 0.037237037
000110 73 0f 97 3c a1 ca 40 be 36 a7 ab bd 45 9c b0 3d
       0.018439984 -0.18827297 -0.08381502 0.08623556
000120 e4 a8 b7 bd b6 31 69 ba fa 7d b3 3c 92 a5 bd bc
       -0.0896776 -0.0008895652 0.021910656 -0.02315024
000130 bb 7f 0e bc 64 c8 94 3d 72 60 b3 bd d1 ee 1c be
       -0.0086974455 0.07264784 -0.0875863 -0.15325476
000140 ce f9 61 bd 51 d9 89 bd 37 15 d3 bc a8 e3 d5 3d
       -0.055169873 -0.06730903 -0.025766952 0.104438126
000150 0f 59 a2 bd a3 e0 74 be 92 70 87 bd 96 68 80 3d
       -0.07927143 -0.23913817 -0.06613268 0.06269948
000160 47 fd 31 3d 33 13 8f 3c c7 30 6b bd 37 cb 0e 3e
       0.043454435 0.01746521 -0.057419565 0.13944708
000170 0f c7 04 3e 85 e6 53 be 86 9b c3 3c 50 3d 81 bd
       0.1296656 -0.20693405 0.02387787 -0.063105226
000180 10 db c5 3c b7 56 f8 3d 40 8d f3 3b 77 49 00 3c
       0.024152309 0.121259145 0.00743261 0.007830015
000190 e4 ae 60 bd 96 09 87 3d 55 07 aa 3d f1 96 8d bd
       -0.05485429 0.06593625 0.0830218 -0.069135554
0001a0 62 50 5e be 81 45 19 be 11 a5 96 bc 8c 16 94 be
       -0.21710351 -0.1496792 -0.018389257 -0.28923452
0001b0 39 b6 1e 3e ef e3 07 3e 41 61 86 bd 02 cf b3 3d
       0.154992 0.13270544 -0.065615185 0.08779718
0001c0 70 24 ac 3c 1d 9f 52 bd f7 62 08 be 33 23 c3 bd
       0.021013469 -0.051421273 -0.13319002 -0.09528198
0001d0 16 d3 8f bc 64 92 18 be 89 69 6a 3c f8 d6 5e bd
       -0.017556708 -0.14899594 0.014307388 -0.05440423
0001e0 b4 15 9a be 59 ae 1d 3d c2 e2 df 3c 27 d4 89 be
       -0.30094683 0.03849635 0.027329806 -0.26919672
0001f0 64 3b 7c bc 10 fb 92 3d a3 53 b5 3a 49 9d c4 bd
       -0.015395019 0.071767926 0.001383413 -0.09600312
000200 02 36 34 be b3 e1 e3 bd fa 9a 5c 3d 13 94 96 3d
       -0.17598727 -0.11127033 0.053858735 0.07352462
000210 6c 5b 82 bd 3a 61 40 bd 75 c2 7c bd 6e 37 08 bd
       -0.063650936 -0.046967722 -0.061708886 -0.033255987
000220 18 8e 8f 3d 63 fc 7a bd 31 14 e0 3c 23 9c 82 bd
       0.07009524 -0.06127585 0.027353378 -0.06377437
000230 24 9f 89 bc 3a 24 18 bd 28 c9 05 be 69 9f 47 bc
       -0.016799517 -0.037143923 -0.13065016 -0.012184002
000240 5d 42 8d bc 61 24 9b 3d e0 18 88 be f3 e9 27 be
       -0.017243559 0.07575298 -0.26581478 -0.16397838
000250 85 e2 1e bd d8 31 d1 3c de 5f 89 bd 26 20 cf bb
       -0.038790245 0.025536463 -0.06707738 -0.006320971
000260 65 d5 93 3b 05 ff d7 3c 04 47 e2 3d 65 ce 20 3d
       0.0045115226 0.02636672 0.110487014 0.039259333
000270 16 5e 95 3d 8c 44 cd bc 2d a2 96 3d 53 48 9a bd
       0.07293336 -0.0250571 0.07355151 -0.07533326
000280 ee df 5b bc c8 20 22 3e 7e 92 30 bd 2e 22 11 3e
       -0.013420088 0.15832818 -0.043108456 0.14173195
000290 8a 96 6c bd 8c af 2d 3d e2 86 25 be 01 09 39 be
       -0.057760753 0.042403743 -0.16164735 -0.18069841
0002a0 da a6 87 3c d6 22 a6 3d d5 90 d8 bd fd 0b c6 bd
       0.016559053 0.08112113 -0.105744995 -0.09670255
0002b0 be 4d 21 3e 78 e4 b8 3d 70 e4 b8 bd 44 2c 61 be
       0.15752313 0.09027952 -0.09027946 -0.21989542
0002c0 a5 3d ac bd 7a 7c 7e 3d e0 37 a2 3d a9 c6 93 bb
       -0.08410195 0.06213043 0.079208136 -0.004509766
0002d0 c7 47 4f bd 52 31 45 bd be aa c9 bc df da a7 3d
       -0.05060556 -0.04814274 -0.024617549 0.08196043
0002e0 7a 9b e2 3c 94 3f 0e 3d 19 f8 0a bd 50 d4 24 bc
       0.027662028 0.0347286 -0.03392801 -0.010060385
0002f0 bd ac 1e bd 25 4e 39 bd 1f f3 69 3e 81 36 38 bd
       -0.038738955 -0.04524054 0.2284665 -0.044973854
000300 dd 43 7f be b7 60 82 be 5e ff 3d be be 36 8b 3d
       -0.24928232 -0.25464413 -0.18554446 0.067975506
000310 ce d3 23 bd ae b3 d2 bd ad 00 d2 3c 12 8c ab b8
       -0.039996915 -0.102881774 0.025635088 -8.1800055e-05
000320 69 b3 8a be 6d af d7 3c 8e c4 84 bd fd 34 2e 3c
       -0.27090004 0.026328767 -0.06482802 0.010632751
000330 e5 01 56 3e b5 04 8c 3d bb e6 37 be c1 0d a9 bd
       0.2089916 0.06836835 -0.1795911 -0.082545765
000340 55 71 ed bd 68 3d b1 bb ef a2 20 3e 1b 80 b9 3d
       -0.11593882 -0.0054089315 0.15687154 0.09057637
000350 d0 e1 90 3e 6d a2 90 be 44 29 a0 bd 8f 36 be bd
       0.2829728 -0.2824892 -0.07820371 -0.0928775
000360 83 41 a2 bb 12 4b cf 3d 38 dc 00 be 88 87 dc 3d
       -0.0049516573 0.101217404 -0.12584007 0.10768038
000370 ea 9c 4b 3e 86 12 3c be d6 c9 37 bd 4e 94 cc 3c
       0.19884077 -0.18366441 -0.04487022 0.024973061
000380 55 f5 34 be 7b 06 f7 3d 37 d2 45 3e 81 53 d1 bd
       -0.17671712 0.12061783 0.19318472 -0.10221005
000390 5e 85 d6 bc b6 90 a2 be a3 bf 9d bc df 88 56 bd
       -0.026186641 -0.3175103 -0.019256419 -0.052376624
0003a0 1d 3e 7b bc 78 b2 83 bd 91 cb 33 3d 7d 58 d6 bd
       -0.015334633 -0.064305246 0.043895308 -0.104660966
0003b0 5d 50 6f 3d a0 56 ff 3d b2 d3 01 3e 3c 45 ca 3d
       0.05842625 0.12467694 0.12678412 0.09876487
0003c0 0a ee c0 3d 25 ae 15 3b 0e 48 af bc 6b f5 c2 3d
       0.09420402 0.0022839394 -0.021396663 0.09519466
0003d0 10 75 27 3c ae 65 cb 3b c7 34 6e bc f2 e2 bd bc
       0.010220781 0.0062071895 -0.01453895 -0.023179505
0003e0 08 9f bb bb bd ae ac bd ad 2e 8c be 83 2c 16 3d
       -0.005725745 -0.08431766 -0.2737936 0.036663543
0003f0 16 34 09 3d c6 44 1d be ac 81 1c 3d fb c9 f2 3d
       0.03349694 -0.15358266 0.038209602 0.11854931

network_body._body_endoder.seq_layers.2.bias f4 [128]
000000 92 4d 96 3d ce ca 90 3c e4 31 66 3d 2c c6 7f 3d
       0.07339014 0.01767483 0.056199923 0.06244485
000010 93 89 00 3c 41 5e bc 3d 14 57 89 3d 92 ae a1 bb
       0.0078453 0.09197665 0.06706062 -0.0049341405
000020 c5 b1 98 bd 79 a1 b3 3c d7 f6 95 3d e0 ea 41 bc
       -0.07455782 0.021927582 0.073224716 -0.011835784
000030 1a f4 3e bd 71 fd 0c bc 6a 8f da 3c 4d 7e 54 3b
       -0.046619512 -0.008605347 0.026679713 0.0032423914
000040 7f e2 14 bd b2 c2 62 3d 74 5c c4 bd 04 69 6b 3c
       -0.036348816 0.055361457 -0.095879465 0.014368299
000050 76 e5 ba 3c c5 34 85 3c d7 74 d0 3a a0 7b 39 3d
       0.022814494 0.016260514 0.0015903962 0.045283914
000060 98 d7 8a 3d ec 37 e8 3c 01 b9 fa 3b 37 c1 38 bc
       0.067794025 0.028346978 0.0076514487 -0.011276535
000070 ed 7e 3a bd 8d 87 9c 3d 75 62 55 3b 24 83 f4 3c
       -0.045531202 0.07643042 0.0032559906 0.029847689
000080 0f dc 6f 3d a0 a4 5a 3d 03 43 e2 3c a9 a7 ea 3c
       0.058559474 0.053379655 0.027619844 0.0286444
000090 3d 53 38 3d cf 4e 9e bc 48 e4 48 3d 7a a3 22 3d
       0.045001257 -0.019324688 0.04904583 0.039706685
0000a0 3f 2f 0f 3c ae 7d 3a 3d 56 28 83 3c 17 2f 06 3b
       0.008739292 0.045530014 0.016010445 0.0020474845
0000b0 bc 67 0c 3c d6 a9 e7 bb c5 82 72 3c 72 1c a9 3d
       0.008569654 -0.0070698066 0.014801686 0.08257379
0000c0 2d c7 db 3b a6 26 54 3c cf 42 7a 3d 37 b5 4c 3d
       0.006707093 0.012948668 0.06109887 0.049977507
0000d0 34 f4 36 3d 31 fa 59 bc f2 5d 66 bc f8 3c 6b ba
       0.044666484 -0.013304279 -0.014060484 -0.00089736236
0000e0 8c 45 0d bd a5 38 41 bc 7a 78 34 bc d9 bf c8 3c
       -0.034490153 -0.01179329 -0.011015052 0.024505543
0000f0 b4 3c 83 3d ed f5 93 3b d3 82 5c 3d 3a 23 8f 3d
       0.064080626 0.0045154006 0.0538357 0.06989141
000100 10 36 88 3c f2 c5 66 bd 2d b7 15 3d 00 c5 8b 3c
       0.016627342 -0.05634112 0.036551643 0.01706171
000110 37 93 1e bd 78 cb 6b 3d e5 c7 80 3d 46 2c 8d 3b
       -0.038714614 0.05756709 0.06288127 0.0043082563
000120 9a f8 0a bd 08 e7 90 3d b3 d1 ca 3d b0 7a f5 ba
       -0.03392849 0.07075316 0.09903278 -0.001872858
000130 67 a2 f2 3c 82 85 46 3c e0 04 54 bc 34 bd c9 3c
       0.029618455 0.012116792 -0.012940615 0.024626352
000140 6b f8 d7 3c e9 6c 9b 3c 3e 7f 88 3d b1 b0 89 bc
       0.026363572 0.01897283 0.066648945 -0.016807886
000150 61 8b 1e 3d b2 90 bd 3c 08 28 71 bc 20 2e ac 3d
       0.03870714 0.023140285 -0.014719017 0.08407235
000160 c0 80 32 3c e7 83 30 bc b8 60 d6 3c 20 de ea bb
       0.010894954 -0.0107736355 0.026169166 -0.0071675926
000170 3f ee f5 3c b7 bc 70 3b c0 58 3a bc c2 4e 46 3d
       0.030020831 0.0036733577 -0.011373699 0.048414953
000180 d5 8e 17 3d cc d3 23 3d b6 8c 5a 3d d9 01 de 3c
       0.03700145 0.039996907 0.05335685 0.02710049
000190 6c 16 b0 bb ac 80 22 3d e1 58 42 3d a2 24 13 3d
       -0.0053737666 0.039673492 0.047448043 0.035923608
0001a0 6d 44 27 3c c0 d7 2f bc 0f 3d 23 bd 06 c2 df 3c
       0.010209185 -0.010732591 -0.039853152 0.027314197
0001b0 93 c7 8f 3c 8e c3 f1 3c c7 b8 6b 3d 8e cd 3c 3d
       0.01755122 0.029512193 0.057549264 0.04609447
0001c0 ba b8 69 3c b2 d6 a3 3b be 24 48 3d dd 17 1c bc
       0.014265234 0.004999959 0.048863165 -0.009527174
0001d0 07 27 8f bd 28 aa cd 3d 4a f7 66 3d bb af 84 3d
       -0.06989866 0.1004222 0.056388177 0.064788304
0001e0 d6 96 cc bc 42 b6 b1 bd d9 10 aa 3c ec 8c c3 bc
       -0.024974268 -0.08677341 0.020759987 -0.023870908
0001f0 13 e3 20 3d bb 4d 58 3c 2c 01 31 ba bd ef 68 3c
       0.039279055 0.013202126 -0.0006752189 0.014217314

action_model._discrete_distribution.branches.0.weight f4 [3, 128]
000000 46 9f 8a bd 47 c0 0e be d8 f8 85 bd 23 34 93 3c
       -0.0676866 -0.13940535 -0.06541604 0.017969197
000010 16 39 52 3d 33 15 a0 3c 98 84 47 bb 72 1e a4 3b
       0.051323973 0.019541359 -0.0030444022 0.005008512
000020 97 67 39 bd 1f e8 f2 3c 1c 4c a3 bd c9 8c 21 3d
       -0.045264807 0.0296517 -0.07973501 0.039440904
000030 7a 1f c2 bc f4 26 a7 ba 45 b4 b8 bd 4a 62 11 3d
       -0.02369665 -0.0012752698 -0.09018759 0.035494126
000040 27 f6 5f 3c 6b 63 fc bc b9 39 72 3d 88 32 a1 bd
       0.013669527 -0.030809125 0.05913708 -0.07870966
000050 a7 27 81 3d cc 46 30 bc de 15 6f 3d 57 dc 22 bc
       0.06306391 -0.010759067 0.058370464 -0.009940228
000060 4b 8c 3c 3c 6d 8e eb bc 19 14 be bc c1 90 20 bc
       0.011508058 -0.028754437 -0.023202943 -0.009800137
000070 fe 72 81 bc d4 35 c6 bc 6c b4 6c bd 3c 89 48 3c
       -0.015801903 -0.02419559 -0.05778925 0.0122397505
000080 58 e3 cf bc fc 30 f6 bd c8 9b 03 bd fe ab be bc
       -0.02537696 -0.12021062 -0.032130986 -0.023275372
000090 b7 98 89 bb ab d5 18 3c dc 42 a9 3d 9d 7f df 3b
       -0.004199113 0.009328286 0.082647055 0.0068206326
0000a0 25 ea 0c bd ad cb 5f bd 0a c6 69 3b 2e 65 8e 3b
       -0.034402985 -0.0546376 0.003567102 0.0043455577
0000b0 6f 77 07 3e 2a 02 ab bb cf 78 9a bb cd 92 fc 3c
       0.13229154 -0.005218764 -0.0047141085 0.030831719
0000c0 b0 43 49 3d 58 86 e3 bb 0f cc 39 bd 2f 09 b3 3c
       0.049136817 -0.0069435053 -0.04536062 0.021854965
0000d0 74 a6 5e bc c6 c3 21 3d 79 da 18 bd 7d 3d 01 3d
       -0.01358949 0.039493345 -0.037317727 0.03155278
0000e0 ba ae 1d 3a f8 5c bf 3c 06 5a 08 3d e7 1c 08 3e
       0.0006015111 0.02335976 0.033288978 0.13292275
0000f0 1a 35 f7 bb 84 cc 62 3d 2a 51 06 3d f0 45 07 bd
       -0.007544172 0.055370823 0.032792248 -0.033025682
000100 65 d4 f9 3c 3c 4c 66 3d 4e 8e b9 bc 15 8d 4b bc
       0.030496785 0.056225047 -0.022650864 -0.012423773
000110 87 65 d0 3b b6 fc 86 bd 9d 55 52 bc 2a aa 33 3d
       0.0063597593 -0.065911695 -0.012837795 0.043863453
000120 e4 94 5d 3d 91 52 08 be a6 3c 4d bd 09 ef a4 3d
       0.05409707 -0.13312747 -0.050106667 0.08053405
000130 d0 66 44 bd b4 f0 13 3c f7 af 90 3c 04 ab 52 3c
       -0.047949612 0.009029556 0.017662032 0.012858156
000140 e8 0c 8e bd 0a 09 10 bd c4 14 28 3c d6 f5 fb 3c
       -0.069360554 -0.03516487 0.010258857 0.030756872
000150 3a 08 13 3d d4 ad a0 3c dc ee e9 3c 7a ba 4c 3c
       0.035896517 0.019614138 0.02855628 0.012495631
000160 ec 3e 12 3d 44 e8 a7 3d 3b 17 06 bd 4a 56 45 3d
       0.03570454 0.08198598 -0.032736998 0.048177995
000170 e5 1c b3 bb 3f 5d 06 3e a8 1d 02 3d 86 8c 8b bd
       -0.005466091 0.13121508 0.031766564 -0.06813912
000180 24 3e 85 3d f5 01 22 bd 65 9a 01 bd 9e 90 20 3d
       0.06505993 -0.039552648 -0.031641383 0.039200418
000190 58 dc aa bd 5c 54 fe bd 3e 0e 0d 3d c0 16 20 3c
       -0.083428085 -0.12418434 0.03443741 0.009771049
0001a0 5e 9a e5 3c 33 46 c7 3c 8a 4b a7 ba 16 89 42 bd
       0.02802771 0.024325466 -0.0012763601 -0.047494017
0001b0 ad 93 dd b9 1c eb 68 bd 61 cd c3 bc 5a 69 01 3d
       -0.00042262432 -0.056864843 -0.023901643 0.03159461
0001c0 82 90 3a bd 81 42 69 bc 57 a7 27 3d 7a 39 53 3c
       -0.04554797 -0.014237047 0.040931072 0.012892121
0001d0 87 ce f8 3c 18 a5 b7 3c 93 5b 6e bd b2 9e b2 3c
       0.030371917 0.02241759 -0.0581928 0.021804187
0001e0 e3 44 95 3c 82 ef 03 3d 29 dd fc 3c 6a f4 8d 3d
       0.018221324 0.032210834 0.030867176 0.06931384
0001f0 93 6c de 3c 29 66 ac 3b 31 2a 0b 3b 63 8c 00 3d
       0.027151382 0.005261202 0.0021234865 0.031383883
000200 02 d6 17 be 16 42 00 3e bb d0 9b 3d dd c2 36 bc
       -0.14827731 0.1252521 0.076081716 -0.011154857
000210 42 3b 97 bc 84 b4 46 bb ba e0 46 bb cb b4 95 bc
       -0.018460874 -0.0030319998 -0.003034635 -0.018274685
000220 1f 35 54 3b d2 61 e1 bd 8c 1c e8 3d 75 47 11 b9
       0.0032380295 -0.11004986 0.1133357 -0.00013854897
000230 26 c3 2c 3d c0 90 d6 3d fd 2f b0 3d a4 6a 1f bd
       0.042178296 0.104768276 0.08602903 -0.03892006
000240 65 c3 bf 3b 96 f4 38 3d b5 ae 74 bd e6 4f 5e bc
       0.0058521503 0.04515513 -0.059736926 -0.013568854
000250 52 67 8b 3b 31 34 f6 bc 99 af 3a bd 6e d9 b1 bc
       0.00425426 -0.030054184 -0.04557762 -0.021710124
000260 0d 60 b9 bc b0 91 54 bd 28 df 7c bc cc b3 0e bd
       -0.022628808 -0.05189675 -0.015434064 -0.034839436
000270 11 e7 4e bd 22 3b e5 3d 42 ba 39 3d 57 ae c2 bb
       -0.05051333 0.11192919 0.045343645 -0.005941193
000280 95 e0 12 3c 7c b2 45 bd 89 04 a7 3d 43 90 8e bd
       0.008964677 -0.04826592 0.08155162 -0.069611095
000290 f9 a5 a1 3d 2a f3 82 bd 51 8f f2 bb d4 63 d5 bc
       0.07892985 -0.06394036 -0.0074023386 -0.026048578
0002a0 13 d1 eb 3c ce be a3 bd 9f ee e1 bc 06 b0 c1 bc
       0.028786218 -0.079953775 -0.027579604 -0.023643505
0002b0 b0 12 1d bd 27 ef b8 bd a7 f1 83 bd 9d f1 0c be
       -0.0383479 -0.0902999 -0.06442576 -0.13764043
0002c0 c3 68 21 bd 4d 8f f9 3c 88 ce 97 bd a3 23 c5 bd
       -0.03940655 0.030463839 -0.074124396 -0.09625938
0002d0 5a c2 07 bd 5c 14 30 bc 26 59 22 3d a4 15 dd bc
       -0.033144332 -0.010747042 0.0396358 -0.026987858
0002e0 10 b4 ff 3b bf d0 34 bd 7a 06 e9 3c 42 a1 d3 bd
       0.0078034475 -0.04414439 0.028445471 -0.10333492
0002f0 e0 a0 b2 bb 38 a8 0a bc d8 87 ca bd 97 a8 7a 3d
       -0.0054513067 -0.008462958 -0.098891914 0.061195936
000300 eb 92 49 bd 65 9b 66 bd 29 50 74 bd fc 05 ea bd
       -0.049212378 -0.05630054 -0.05964676 -0.11426923
000310 e0 58 d3 bc b7 cf a5 3d a4 98 41 3d 44 b8 87 3c
       -0.025799215 0.08096259 0.04726471 0.016567357
000320 90 6a 47 3c 1f 20 ba bd fa 7c 1a 3e 6f 12 a1 bd
       0.012171403 -0.09088158 0.15086737 -0.07864844
000330 74 6c a3 3d a5 e3 80 bc e5 65 9b 3c 72 52 c0 ba
       0.0797967 -0.01573355 0.018969486 -0.0014673008
000340 d6 37 c8 3d 53 a6 0b 3d cc ce 63 bc fd 47 a1 bc
       0.09776275 0.034094166 -0.013904285 -0.019687647
000350 5a 0f 09 bd e6 cc ed bc b4 99 49 bd df 29 73 3d
       -0.033461906 -0.029028367 -0.04921885 0.059366103
000360 54 04 76 3d 94 42 c1 bd cb bb c2 bc 00 62 91 bb
       0.06006272 -0.09436527 -0.023771187 -0.0044367313
000370 cf 11 b1 bd 9d 46 ad bc f6 f9 ec bd 92 57 35 be
       -0.08645975 -0.021151835 -0.11571114 -0.17709187
000380 f8 11 e7 bc 94 a2 50 3c 97 a8 dc 3d 95 22 0e bd
       -0.02820681 0.012734074 0.107743435 -0.03470095
000390 7d 36 98 3d eb 71 af 3d 6e 8b 10 bd c8 e1 c8 3a
       0.07432268 0.0856665 -0.03528922 0.0015326077
0003a0 43 70 7b 3d e5 49 3d bd 65 78 3d bd b5 a3 06 3e
       0.061386358 -0.04621305 -0.046257395 0.13148387
0003b0 bc ca 5f 3d 79 c0 e2 3c 53 b7 76 bc 0c 18 24 3d
       0.054636702 0.027679669 -0.015058356 0.040061995
0003c0 d3 d3 9e 3d cd 3a ef 3c 9e 79 c1 bc 81 85 1a bc
       0.07755246 0.029202843 -0.023617562 -0.009431244
0003d0 b4 1f 91 3c 40 0a 37 be d8 e6 b4 bd 27 d8 93 3c
       0.017715313 -0.17875004 -0.088330925 0.018047405
0003e0 70 df 22 bc 6b f0 e5 bc 42 d0 d3 bd 05 95 9f bd
       -0.009940967 -0.028068742 -0.103424564 -0.07792095
0003f0 e4 d3 df bc c2 91 22 bc 05 ff c0 3c e5 46 15 bd
       -0.027322717 -0.009922447 0.023559103 -0.036444563

action_model._discrete_distribution.branches.0.bias f4 [3]
000000 b5 b2 0e bd 68 16 0b 3d a9 6d 81 39
       -0.034838397 0.033956915 0.000246865

action_model._discrete_distribution.branches.1.weight f4 [3, 128]
000000 2d 92 86 3d bd 64 d6 39 9f 5f 3c 3c 22 04 18 bd
       0.065708496 0.00040892317 0.011497407 -0.037113316
000010 b3 a6 7e 3c bf ad 28 bc 01 32 1c 3d f9 9e 4b 3d
       0.015542674 -0.010295331 0.038133625 0.049712155
000020 66 26 8e 3c a5 e0 12 3c 87 23 6f bc ae 9f cb 3d
       0.017352294 0.008964692 -0.014595873 0.09942566
000030 ea 89 82 3d 2e 47 b5 bc d0 2d 42 3d 06 0b 80 bc
       0.06373961 -0.022128668 0.04740697 -0.015630256
000040 a2 7a af 3d f5 5a 5c bd f7 61 26 3d 92 41 0e 3d
       0.08568312 -0.05379768 0.04062077 0.0347305
000050 c0 63 b4 bc 92 94 a8 bd 59 5c 88 3d 4c da 96 bc
       -0.02202022 -0.082314625 0.06658239 -0.018414639
000060 39 63 8a 3c ce 2c 5b 3b 55 99 c4 bc f1 60 c0 3c
       0.016893016 0.0033443454 -0.023998896 0.023483725
000070 c8 0b 08 3c 26 da de bc 55 45 da bc b4 ec 17 bc
       0.00830359 -0.02720363 -0.026644388 -0.009272743
000080 e2 8c 73 bd 4c c0 f7 3c bb 50 fb 3b 47 1f 05 3b
       -0.05946053 0.030243061 0.007669536 0.0020312832
000090 8e 3b 00 bd e8 c3 89 bc c3 ec 4e bd 49 62 a3 3c
       -0.031306796 -0.016817048 -0.050518762 0.019944327
0000a0 60 3e 83 3d bf b8 ab 3c 9a d7 b2 bd fc ab 87 3d
       0.064083815 0.020962117 -0.08732529 0.066246
0000b0 3a 17 18 3d 21 9d 11 3c 63 3b 98 3c b0 b6 6c 3b
       0.037131526 0.00888756 0.018583005 0.0036119632
0000c0 5f a8 8a bc 56 2b af 3c 49 22 3c 3c c3 03 31 3d
       -0.016925989 0.021382969 0.011482784 0.043216478
0000d0 71 fd 20 3c fb 10 e9 3c 19 27 6c bc 40 c4 7e 3d
       0.00982605 0.02845048 -0.0144136185 0.062198877
0000e0 7b f9 ab bc 6f e3 11 bc 54 59 91 3d 05 a5 3f bc
       -0.020992985 -0.008904322 0.07097116 -0.011697059
0000f0 7e 76 a0 bd e8 81 51 3c 30 13 f1 3c 3c 16 09 bd
       -0.078351006 0.01278732 0.029428095 -0.03346847
000100 2a 1a a4 bb cd b4 62 3d f6 79 0c bc f9 c3 88 3c
       -0.005008002 0.055348206 -0.008574 0.01669501
000110 08 84 1a 3d bb 4b 84 39 7f 1d 81 bd a3 ae 02 3d
       0.03772357 0.00025233426 -0.06304454 0.031904828
000120 24 41 30 3b c7 bb 1f 3d d2 b4 df bc da 75 6f bc
       0.0026894296 0.038997438 -0.027307902 -0.0146155
000130 60 03 06 bd 29 23 3e bd 73 1c a2 3c 03 21 65 bd
       -0.032718062 -0.04642025 0.019788956 -0.055939686
000140 93 34 91 3d ea 4a 10 bd d7 a4 ef bc 50 22 19 bc
       0.07090106 -0.035227694 -0.029253406 -0.00934656
000150 38 76 84 bd dd 14 bb bd 17 0d ea 3a 42 43 88 bd
       -0.06467861 -0.09134839 0.0017856684 -0.066534534
000160 1b 46 3e 3d 07 f9 09 3d 49 9e 58 3c 01 1f ce 3a
       0.046453577 0.033684757 0.013221332 0.0015725793
000170 de b0 f9 ba e2 56 92 3c f0 86 6d 3c 61 a7 ed 3c
       -0.0019049903 0.017863695 0.014497504 0.029010477
000180 09 e9 a1 bd 74 07 84 bd af fb cb 3c 9e 81 1e 3c
       -0.07905776 -0.06446734 0.024900286 0.009674458
000190 47 4d e5 bd 89 bb 09 bd b5 5a 37 3d 7c b4 99 bc
       -0.1119638 -0.033626113 0.04476424 -0.01876282
0001a0 f2 49 f7 3a 0c 7c a7 bd 00 d1 87 3d f5 27 1d 3b
       0.0018866642 -0.08177957 0.066316605 0.0023980115
0001b0 f2 2c 9d bd c1 38 d7 3c 68 61 3f 3d e7 f4 61 bd
       -0.07674588 0.02627218 0.046723753 -0.055165198
0001c0 37 d8 ab 3c 01 2a 33 bd 3c bd de 3c bf 99 b5 3c
       0.020977123 -0.04374123 0.027189843 0.022168038
0001d0 7e e5 14 3d 63 7f 39 bd 2c c1 52 bc 6b b4 9e bd
       0.036351673 -0.0452875 -0.012863439 -0.07749256
0001e0 f5 c3 49 3d 40 dc 4e 3c fd 31 2c 3d f9 cc 1b 3b
       0.049259145 0.012625754 0.04203986 0.0023773296
0001f0 81 3d ab 3d 9f a8 e1 bd 35 e3 bd bc 3f 81 0c bc
       0.0836134 -0.1101849 -0.02317963 -0.008575737
000200 bc 2e eb bd 5d dd c0 bc 7a b9 ad bc c0 f0 d4 3d
       -0.11483523 -0.023543054 -0.021206606 0.10397482
000210 c1 4c 86 3d 8e d9 12 3e 72 af 52 3d 22 1a ee 3c
       0.065576084 0.14340803 0.05143685 0.029065195
000220 b4 cf af 3c d0 68 dd 3c 6d 5e 25 bd 9d e6 93 bd
       0.021461345 0.027027518 -0.040373255 -0.0722172
000230 32 66 85 bc 65 9d bb 3c de 06 b2 bb 24 49 01 3d
       -0.016284082 0.0229022 -0.0054329475 0.031563893
000240 77 6a c2 bd fd 68 a1 bd 2e c2 60 bd c4 76 b1 bc
       -0.09492963 -0.07881353 -0.054872684 -0.021663077
000250 c0 cd 59 3d 40 9f 78 3d ef 17 93 bc 5a dd 97 bd
       0.053174734 0.060698748 -0.017955748 -0.07415266
000260 e4 1f f5 3d f2 bd 76 bd e6 68 68 3d ae 02 a2 3b
       0.11968973 -0.06023974 0.056740664 0.004944167
000270 27 40 2a bd 8a 62 0e 3c 04 cd 33 bd e4 40 1a be
       -0.041565087 0.008690486 -0.04389669 -0.15063816
000280 02 35 55 bd d2 2e 09 bd 56 f9 2f 3c a9 29 ef 3c
       -0.052052505 -0.033491917 0.010740599 0.02919467
000290 c2 91 40 3d ba 18 4c 3d cd 0d bd bd 60 92 7f bd
       0.047014005 0.04982827 -0.09231148 -0.062395453
0002a0 e7 a2 b0 bd 98 d6 ea 3b 9a c1 8c bd 22 6e ff bd
       -0.08624821 0.007166695 -0.06872864 -0.12472178
0002b0 16 ce c0 bd 85 5d d1 bc 32 53 9f 3c 46 2e 70 3c
       -0.09414308 -0.025557289 0.01944885 0.01465947
0002c0 00 de eb bd 5a 3c cc bc 11 29 34 3d c2 69 28 bd
       -0.115169525 -0.024931122 0.043984476 -0.041116484
0002d0 58 f9 48 3d 2c 8a 7b bd d5 54 03 bb 7e 00 19 3d
       0.049065918 -0.061411068 -0.0020039578 0.037353985
0002e0 13 ac 9d bd 27 bf 81 bd 2d d4 ab bd 35 91 25 3d
       -0.07698836 -0.063352875 -0.08390079 0.040421683
0002f0 af 73 de bd 39 72 ba bc 5b 81 be bd dc ec ae bd
       -0.10861909 -0.022759544 -0.09302016 -0.08541271
000300 57 9c 1c bd ce 1c af bc c7 29 91 bd 2f 8d 39 bd
       -0.038235035 -0.02137604 -0.070880465 -0.04530066
000310 b7 a0 07 3d f7 08 2b bd 32 8e b2 bd 63 f2 29 bd
       0.033112254 -0.041756596 -0.08718528 -0.041490924
000320 71 9f 81 3d 7c 3c 6a bd 87 19 37 3d 6f 2d 7c bd
       0.06329239 -0.05718659 0.04470208 -0.061566766
000330 05 33 28 3d c6 39 eb 3d 3b fd 9c bd 30 12 58 bd
       0.04106428 0.11485629 -0.076654874 -0.05275172
000340 f6 71 56 bd b3 b7 cb 3d 0a 4e e0 3d 0a 4a 35 3d
       -0.052354775 0.09947147 0.10952385 0.044260062
000350 5f 10 85 bc 6e c9 a3 3d 27 55 ef 3c cb e2 ca bb
       -0.016243158 0.07997404 0.029215408 -0.0061915866
000360 d8 d8 15 bd d7 08 11 bd 2f f6 df bd d8 f8 89 3d
       -0.03658375 -0.03540882 -0.10935628 0.06736916
000370 a0 32 05 bd 9c 54 49 bd a6 13 5f bb f1 a4 df b9
       -0.032518983 -0.049152955 -0.003403881 -0.00042656765
000380 05 4e c9 bd 9f e5 f0 3d 3a a9 f7 3c 7e be 6a 3d
       -0.09829334 0.11762547 0.03023206 0.057310574
000390 25 59 34 3d 87 35 52 3d 52 44 1f 3d fe bc 25 be
       0.044030327 0.05132058 0.038883515 -0.16185376
0003a0 c7 3f 94 3d 65 49 23 3d 9e f2 e6 bc 23 10 6e 3d
       0.07238727 0.039864916 -0.02819186 0.058120858
0003b0 53 ae ad 3d d0 9f fe bc cb 7d 15 be 20 a4 af 3d
       0.08480515 -0.031082064 -0.14598767 0.08576226
0003c0 5f 6d a2 3a 6c e2 cd 3b bb 0c 0b be 71 c1 e3 3c
       0.0012392214 0.006283095 -0.13579075 0.027802201
0003d0 d0 81 f4 bb 40 24 6e 3d e2 9b 8d 3d 01 46 c0 3d
       -0.007461764 0.05814004 0.06914498 0.09388352
0003e0 ed 43 ee bc 80 22 ad ba fc 01 bd bd 49 4a aa bc
       -0.029085124 -0.0013209134 -0.09228894 -0.020787375
0003f0 b4 de 21 bd fe 9c 36 bd 02 0f c7 3d ea c9 8a bd
       -0.039519027 -0.044583313 0.097196594 -0.06776793

action_model._discrete_distribution.branches.1.bias f4 [3]
000000 06 22 09 bd 13 15 ee 3c fa fe c3 3b
       -0.033479713 0.029062783 0.0059813233
