PillarGame/Assets/Models/sacModel.onnx (onnx, 110359 bytes, 9 tensors)

discrete_action_output_shape f4 [1, 2]
3.0 3.0
00000000: 0000 4040 0000 4040

network_body._body_endoder.seq_layers.0.weight f4 [128, 74]
0.16316724 -0.18495934 -0.55425805 -0.19283605 -0.45281523 -0.10282541 0.16040267 -0.6046553
-0.0636458 -0.37531385 -0.4900281 0.29941237 0.24579433 0.3166325 -0.16603951 -0.64957136
-0.08831614 -0.6376229 0.17425719 -0.32995406 -1.0396106 0.39190274 -0.16741012 0.39702222
-0.12258392 -1.2260582 -0.096032895 -0.4761977 0.0973768 -0.43835184 -1.7306793 0.7473909
-0.96408814 0.14902082 -0.2100878 -0.6729171 -0.7873963 -0.807215 -0.020929987 -0.3790076
-1.0303439 0.16954538 -0.9837151 0.23935726 -0.4714788 -0.4631099 -0.77324134 -0.06667083
0.18677115 -0.45695418 -0.88946104 -0.26385775 -0.21764672 0.05419958 -0.44028687 -0.16161136
-0.22630076 -0.5193056 0.16210514 -0.59670085 -0.088713504 -0.082688875 -0.37002334 0.084186286
-0.47569346 0.33948237 -0.20596896 -0.043000784 0.2419488 -0.32620454 0.097849324 0.32074168
-0.3762529 -0.26045215 -0.73541117 0.53886914 -0.04528993 -0.017521344 -0.25542542 -0.05304626
0.042875726 0.33794123 0.24960196 -0.15735318 -1.2076397 0.70755786 -0.25713572 -0.23486833
-0.4077482 -0.39932737 -0.25224003 0.7325197 -0.10167254 -0.0010239532 -0.6348708 0.64341956
0.26455787 -0.1265394 -0.27205884 0.7038044 -1.4259864 0.18603198 -0.22659023 -0.0038316122
-1.0939975 1.1938902 0.56042796 -0.18551865 -0.091020614 0.58199155 -1.3087002 -0.43812618
-0.11364216 -0.35910684 -1.7496777 0.89383 0.90785 -0.087754235 -0.10851924 0.749382
-0.7416833 -0.7162397 -0.0865905 -0.11581411 -1.0032686 0.38193923 0.45645198 0.011632336
-0.09826503 0.05076948 -0.6075323 -0.06063041 0.052567016 -0.27480152 0.270728 -0.5915336
-0.12112786 -0.17874864 -0.21239804 -0.030708391 -0.1690566 0.12368995 -0.0072546084 -0.0029035495
-0.029798737 0.277041 0.16568266 0.023152016 -0.69374853 -0.27026188 -0.43463537 -0.060529243
-0.49611986 -1.0676464 -0.31438082 -0.5845532 0.15634201 -0.37189072 -1.046149 -0.013809789
-0.2284828 0.05148867 -0.20692071 -1.0434144 0.009638382 0.19690152 0.09521715 -0.41811052
-0.8773444 -0.059407346 -0.27138716 0.09779473 -0.20277457 -0.9153696 0.06824267 0.30981544
-0.071385466 -0.56069165 -1.5730866 0.12278276 0.17031834 0.017671542 -0.03900502 -0.42559844
-0.08909163 0.10230874 0.10707591 -0.72875375 -0.7584114 0.18194282 0.1085897 -0.02237294
-0.25670803 -0.061923746 -0.478307 0.07224918 -0.21610598 -0.5536565 -0.31825405 0.19421318
0.05071159 -0.0061058616 -0.35486543 0.19857918 0.07909424 -0.107209116 0.0869946 -0.2621144
0.09219721 0.20147839 -0.0017998946 -0.15125304 -0.306593 -0.35487258 -0.40045324 0.1711646
0.27421227 -0.2875392 0.17219366 -0.47816172 0.13726194 0.30240694 0.25825912 -1.0814188
-0.65549093 0.068777315 0.22419497 -0.3005439 -0.063525744 -0.2738934 -0.13530235 -0.120358415
0.43279606 -0.9558818 -0.8137578 0.243078 0.100467645 -0.29371253 -0.28019416 -0.10192738
0.13145179 0.37038073 0.6581972 -0.21270344 -1.024585 0.1973319 0.10490547 0.30956745
-1.3127406 0.33686575 -0.04921723 -0.08932469 0.47333953 -0.38800937 -0.6284988 0.11013895
00000000: 5015 273e fb65 3dbe dbe3 0dbf d076 45be
00000010: 66d7 e7be 2196 d2bd 9940 243e b1ca 1abf
00000020: bb58 82bd 2329 c0be f7e4 fabe 944c 993e
00000030: 82b1 7b3e a81d a23e 4306 2abe 4f4a 26bf
00000040: 18df b4bd 413b 23bf 7a70 323e bdef a8be
00000050: f611 85bf 7aa7 c83e 8f6d 2bbe 7f46 cb3e
00000060: 470d fbbd 7aef 9cbf e5ac c4bd 2fd0 f3be
00000070: 7d6d c73d a76f e0be e686 ddbf 0355 3f3f
00000080: 7bce 76bf ea98 183e 4221 57be 4c44 2cbf
00000090: ce92 49bf a4a5 4ebf 5d75 abbc 490d c2be
000000a0: 4fe2 83bf 4e9d 2d3e c1d4 7bbf 121a 753e
000000b0: ab65 f1be be1c edbe 25f3 45bf b78a 88bd
000000c0: f040 3f3e e6f5 e9be b8b3 63bf 5d18 87be
000000d0: c8de 5ebe 6100 5e3d 486d e1be 737d 25be
000000e0: 63bb 67be 36f1 04bf e4fe 253e 63c1 18bf
000000f0: 6daf b5bd c958 a9bd b373 bdbe dc69 ac3d
00000100: 188e f3be a2d0 ad3e 87e9 52be 9721 30bd
00000110: 6dc1 773e 4804 a7be 3a65 c83d 4138 a43e
00000120: 38a4 c0be fc59 85be e843 3cbf 54f3 093f
00000130: ef81 39bd ec88 8fbc 1fc7 82be 0947 59bd
00000140: 759e 2f3d a206 ad3e a897 7f3e 3121 21be
00000150: f093 9abf 8322 353f 4ba7 83be 5381 70be
00000160: 5fc4 d0be a374 ccbe 9b25 81be 6986 3b3f
00000170: b139 d0bd 2b36 86ba e586 22bf 25b7 243f
00000180: 2174 873e 8b93 01be 4c4b 8bbe 862c 343f
00000190: b986 b6bf 2b7f 3e3e 4507 68be c91b 7bbb
000001a0: 1c08 8cbf 65d1 983f 3578 0f3f 9af8 3dbe
000001b0: 0469 babd 66fd 143f 7d83 a7bf 1352 e0be
000001c0: 39bd e8bd dadc b7be 70f5 dfbf 0bd2 643f
000001d0: dc68 683f 7eb8 b3bd 563f debd 80d7 3f3f
000001e0: f5de 3dbf 7c5b 37bf 5c56 b1bd f32f edbd
000001f0: 1b6b 80bf 8a8d c33e 13b4 e93e 8e95 3e3c
00000200: 2d3f c9bd a9f3 4f3d 3d87 1bbf 9857 78bd
00000210: 8350 573d c9b2 8cbe dc9c 8a3e bf6e 17bf
00000220: e211 f8bd e209 37be df7e 59be 2a90 fbbc
00000230: 2c1d 2dbe 2851 fd3d 11b8 edbb 7a49 3ebb
00000240: 7b1c f4bc 51d8 8d3e b7a8 293e 4ca9 bd3c
00000250: 8199 31bf c45f 8abe 8788 debe 83ed 77bd
00000260: 6c03 febe a3a8 88bf 86f6 a0be 47a5 15bf
00000270: 1f18 203e 7668 bebe 36e8 85bf 7442 62bc
00000280: 65f7 69be c9e5 523d 06e3 53be 9a8e 85bf
00000290: 4eea 1d3c 8da0 493e 3601 c33d 9512 d6be
000002a0: a599 60bf 1e55 73bd 42f3 8abe 9a48 c83d
000002b0: 23a4 4fbe a955 6abf d0c2 8b3d 21a0 9e3e
000002c0: 8b32 92bd 7d89 0fbf e75a c9bf 8775 fb3d
000002d0: ee67 2e3e e9c3 903c bac3 1fbd 0ae8 d9be
000002e0: ac75 b6bd 3f87 d13d 9d4a db3d 9b8f 3abf
000002f0: 4027 42bf 384f 3a3e 4764 de3d 7547 b7bc
00000300: 3c6f 83be c1a3 7dbd a8e4 f4be 61f7 933d
00000310: e34a 5dbe 6fbc 0dbf 32f2 a2be d2df 463e
00000320: f5b6 4f3d ae13 c8bb ecb0 b5be 5758 4b3e
00000330: 29fc a13d 7490 dbbd 3a2a b23d dc33 86be
00000340: e4d1 bc3d 5a50 4e3e 71ea ebba 14e2 1abe
00000350: c2f9 9cbe dcb1 b5be 3508 cdbe c645 2f3e
00000360: 8d65 8c3e 5738 93be 8953 303e 9dd1 f4be
00000370: 658e 0c3e 15d5 9a3e 8a3a 843e ee6b 8abf
00000380: 41ce 27bf 1fdb 8c3d 5e93 653e e4e0 99be
00000390: c919 82bd c13b 8cbe b38c 0abe 797e f6bd
000003a0: 7297 dd3e abb4 74bf 6e52 50bf 70e9 783e
000003b0: fbc1 cd3d 7d61 96be 9c75 8fbe 4dbf d0bd
000003c0: 4c9b 063e 8ba2 bd3e 9d7f 283f eece 59be
000003d0: 9a25 83bf 6011 4a3e aed8 d63d a07f 9e3e
000003e0: e207 a8bf ab79 ac3e 0298 49bd ddef b6bd
000003f0: 8f59 f23e 2aa9 c6be 4ce5 20bf 8890 e13d

network_body._body_endoder.seq_layers.0.bias f4 [128]
-0.30119964 -0.10645817 -0.28477466 -0.017946187 -0.06268099 0.1959227 -0.14458966 -0.2518066
-0.55837786 -0.063059516 0.082998365 0.044681612 -0.07082163 -0.45373726 -0.1105466 -0.27924523
-0.031360645 -0.06798753 -0.22421479 -0.068628274 -0.15787832 -0.39389372 -0.16565427 -0.25861424
0.17816031 -0.17956884 0.015540974 -0.23714763 -0.011393889 -0.04241879 -0.07040844 -0.124505475
-0.09612502 -0.22588111 -0.11877483 -0.20170864 -0.22185953 -0.41254166 -0.26537088 0.0018888831
-0.5662763 -0.13209626 0.060720153 -0.08512156 -0.46769518 -0.29175612 0.080552064 -0.5725609
-0.42347977 -0.5267475 0.11506376 -0.23940176 -0.24632709 -0.38658157 -0.16599101 -0.23012324
-0.23114547 0.24162401 -0.29323295 -0.12083896 -0.27548283 -0.15366538 -0.12042 -0.017324183
-0.12713961 -0.030900361 -0.10905411 -0.2843227 0.050159626 -0.32248634 0.056211263 -0.45656908
-0.30908495 -0.10481019 0.053179033 -0.11561018 -0.15672474 -0.19614081 -0.2733837 -0.6470529
-0.18196234 -0.108400024 -0.20222999 -0.30723327 -0.08761253 0.14924555 -0.42716897 -0.47004327
-0.57148486 0.067647345 -0.19296251 -0.4151998 -0.40869048 -0.27585167 -0.5489163 -0.05995683
-0.22117285 -0.109721586 -0.3380227 -0.3223875 -0.52444285 -0.49253976 -0.3508365 -0.42663783
-0.32213086 0.0604163 0.08772551 -0.17489359 -0.30052263 -0.050831757 -0.27562383 -0.28347334
-0.3146258 0.15276703 -0.37065998 0.18521908 -0.3394891 -0.15305589 -0.5528246 -0.42924896
-0.21937792 -0.06189251 -0.18893176 -0.1400038 -0.042770576 -0.03623288 -0.15626192 -0.25153834
00000000: d736 9abe be06 dabd fccd 91be e203 93bc
00000010: e45e 80bd f69f 483e 500f 14be cbec 80be
00000020: daf1 0ebf 5925 81bd 0cfb a93d 1104 373d
00000030: ee0a 91bd 4050 e8be 4166 e2bd 3bf9 8ebe
00000040: 0574 00bd 0c3d 8bbd 9098 65be fb8c 8cbd
00000050: dbaa 21be 70ac c9be 46a1 29be 1669 84be
00000060: a86f 363e e5e0 37be 929f 7e3c d4d6 72be
00000070: 6fad 3abc 53bf 2dbd 4d32 90bd bafc febd
00000080: 32dd c4bd 614d 67be 3840 f3bd b68c 4ebe
00000090: 252f 63be a938 d3be b1de 87be 6694 f73a
000000a0: 7cf7 10bf 3e44 07be b2b5 783d 3654 aebd
000000b0: be75 efbe 0f61 95be 7bf8 a43d 5a93 12bf
000000c0: 57d2 d8be edd8 06bf 8ca6 eb3d bc25 75be
000000d0: 2b3d 7cbe 05ee c5be 8cf9 29be 6da5 6bbe
000000e0: 66b1 6cbe 496c 773e a122 96be 6b7a f7bd
000000f0: 160c 8dbe 755a 1dbe c39e f6bd 72eb 8dbc
00000100: e330 02be c122 fdbc c357 dfbd bf92 91be
00000110: 2e74 4d3d ee1c a5be c83d 663d 6cc3 e9be
00000120: 6240 9ebe baa6 d6bd 42d2 593d 08c5 ecbd
00000130: 737c 20be 23d9 48be f3f8 8bbe 42a5 25bf
00000140: 5654 3abe d500 debd 6115 4fbe ae4d 9dbe
00000150: 336e b3bd d3d3 183e e4b5 dabe 83a9 f0be
00000160: d54c 12bf b18a 8a3d f797 45be 1195 d4be
00000170: e13f d1be 6e3c 8dbe c785 0cbf 4b95 75bd
00000180: 237b 62be b6b5 e0bd 5011 adbe f90f a5be
00000190: e341 06bf 2c2e fcbe d7a0 b3be 4670 dabe
000001a0: 56ee a4be 1577 773d 6fa9 b33d 4e17 33be
000001b0: 1ade 99be f634 50bd 911e 8dbe 6b23 91be
000001c0: a216 a1be f66e 1c3e 25c7 bdbe 12aa 3d3e
000001d0: 84d1 adbe afba 1cbe ea85 0dbf 85c6 dbbe
000001e0: 9ba4 60be 0083 7dbd 5477 41be 285d 0fbe
000001f0: 3330 2fbd ee68 14bd 2003 20be a2c9 80be

network_body._body_endoder.seq_layers.2.weight f4 [128, 128]
0.6553889 0.18086658 0.22987348 0.22154331 0.0955162 0.2946385 -0.44008547 -0.5385444
-0.6353091 -0.2946736 -0.062296193 -0.07871897 0.123949446 -0.3736143 -0.11803901 -0.03680517
-0.25812542 0.36543426 -0.4714809 -0.18307222 -0.6521268 -0.3496393 0.46195352 0.019783264
0.27517256 -0.9114436 0.17291456 0.113865614 -1.4036416 -0.40437195 0.19774991 -1.3499473
0.4035959 -0.26481166 -0.41500583 0.15569732 -0.42104393 0.18536517 -0.13427624 0.15622321
-0.2839224 0.36149535 -0.4702157 0.44040498 -0.51653904 -0.0047413544 0.03102286 0.36418992
0.6973716 0.0918093 -0.34963804 -0.22642435 -0.2994981 -0.32235798 -0.2145231 -0.26614323
-0.1500977 -0.6704625 0.38617083 -0.8088833 0.058993313 0.8192866 0.13009736 0.16564146
0.15826352 -0.31356865 -0.25654346 0.20321754 0.2603783 -0.14298397 -0.1201913 0.22165649
-0.48376134 -0.37735572 -0.37076586 0.14925489 -0.0036635483 0.6351329 -0.3009989 -0.13529894
-0.15924378 0.6229744 -0.10641921 0.2104136 0.18532445 -0.75917566 -0.53229153 0.69745666
0.41378546 -0.08103 -0.38313663 0.061673444 0.30471548 -0.35083154 -0.07751012 -0.21194226
-1.0009227 0.43778405 -0.0032516662 0.030461624 -0.02864081 0.24656415 -0.07967951 0.259769
-0.43762392 -0.19926627 -0.38980114 0.3806828 -0.055601068 0.5403404 -0.7736729 -0.23558533
-0.6209163 0.254934 -0.32826984 -1.0380529 0.42905825 -1.1930164 -0.3148037 0.3597447
0.019486545 0.2775326 -0.03736277 -0.36781383 -0.14752947 0.06046672 -0.58950186 -0.015415941
0.18573591 -0.08085727 0.20488341 0.28197765 0.31330705 0.13739437 0.09892546 -0.2513282
0.10151878 -1.0870421 0.21208993 0.23700863 0.3253421 -0.44098285 -1.0794148 -0.04148619
-0.29623216 0.15777576 -0.14435439 0.46120873 -0.21879262 -0.1926942 0.1737403 -0.4635503
-0.2596503 -1.0281885 -0.23347016 0.33602652 -0.6684387 0.6798859 0.045048073 0.13245341
0.27819544 0.010214726 0.3379881 -0.14308144 0.2842131 -0.12057714 0.39625493 -0.21558623
0.2828599 0.0990503 -0.4337316 0.16287296 0.4443594 0.14248483 -0.7444607 -0.87537587
-0.049239952 -0.2363337 0.3709927 0.13728195 0.013088602 -0.16202627 0.29815033 -0.5262328
0.19106722 0.024283811 -0.058952503 -0.3074381 0.060395394 -0.013690546 -0.33753625 -0.1330083
-0.47216746 -0.05239694 0.8647521 0.42925686 -0.8522441 0.3161225 -0.2758995 -0.46835095
0.6405251 0.030738091 -0.02634209 0.2121651 -0.2745827 -0.26090875 0.10987992 -0.80420476
-0.4312065 0.1575225 -0.227261 0.33284593 -0.021547616 -0.40821445 -0.2215349 -0.5441427
-0.017910432 0.32486352 -0.04311382 0.326544 -0.29947126 0.35016206 0.088736326 0.63333786
0.033240203 0.12268299 -0.55682224 -0.5364568 0.16085653 0.28099993 -0.17435755 -0.031277414
-0.16435872 0.20855695 -0.29475617 -0.25830278 0.15150541 0.006034995 0.1969462 0.04047739
-0.032213803 0.24746996 -0.26074228 0.36247414 -1.5048583 0.023384428 0.4010055 0.0021808967
-0.17999941 -0.07066924 0.1893273 -0.25476974 -0.07594953 -0.4688234 0.49482527 -0.030937532
00000000: 91c7 273f 1735 393e f463 6b3e 40dc 623e
00000010: ff9d c33d dcda 963e e252 e1be 0cde 09bf
00000020: 9ea3 22bf 75df 96be 4b2a 7fbd 6937 a1bd
00000030: 35d9 fd3d 604a bfbe 70be f1bd 05c1 16bd
00000040: 0429 84be 331a bb3e f265 f1be 4977 3bbe
00000050: c8f1 26bf ec03 b3be 2c85 ec3e 8310 a23c
00000060: 6be3 8c3e 5e54 69bf 8410 313e 6032 e93d
00000070: 87aa b3bf d709 cfbe f47e 4a3e 13cb acbf
00000080: 1fa4 ce3e 6595 87be a57b d4be 1e6f 1f3e
00000090: 1293 d7be 5ed0 3d3e b67f 09be faf8 1f3e
000000a0: 475e 91be eb15 b93e 1dc0 f0be c37c e13e
000000b0: e73b 04bf 5d5d 9bbb a723 fe3c 1a77 ba3e
000000c0: f286 323f 8406 bc3d c203 b3be c9db 67be
000000d0: d157 99be 1b0c a5be f2ab 5bbe ed43 88be
000000e0: 36b3 19be 6ea3 2bbf 2fb8 c53e fa12 4fbf
000000f0: f9a2 713d c4bc 513f 3e38 053e ea9d 293e
00000100: d50f 223e 128c a0be aa59 83be 4218 503e
00000110: 4e50 853e 646a 12be db26 f6bd ebf9 623e
00000120: 91af f7be c534 c1be 06d5 bdbe 46d6 183e
00000130: 2418 70bb 1298 223f 871c 9abe ce8b 0abe
00000140: cd10 23be 407b 1f3f 51f2 d9bd aa76 573e
00000150: b1c5 3d3e 5659 42bf 4244 08bf 858c 323f
00000160: b0db d33e 0ef3 a5bd 7c2a c4be 4b9d 7c3d
00000170: ab03 9c3e 31a0 b3be a0bd 9ebd 6407 59be
00000180: 3c1e 80bf 3b25 e03e e819 55bb a88a f93c
00000190: 22a0 eabc 507b 7c3e 032f a3bd 7100 853e
000001a0: 3e10 e0be 750c 4cbe 0494 c7be dbe8 c23e
000001b0: f2bd 63bd c053 0a3f 6d0f 46bf 483d 71be
000001c0: 5ff4 1ebf b686 823e fc12 a8be ebde 84bf
000001d0: 86ad db3e c3b4 98bf f32d a1be 7530 b83e
000001e0: 3fa2 9f3c c118 8e3e b409 19bd 1852 bcbe
000001f0: f711 17be f4ab 773d 98e9 16bf 2593 7cbc
00000200: 8e31 3e3e 7f98 a5bd f5cc 513e 605f 903e
00000210: c869 a03e 1cb1 0c3e 6e99 ca3d 17ae 80be
00000220: 14e9 cf3d 3224 8bbf 1a2e 593e 64b2 723e
00000230: 3d93 a63e 81c8 e1be 442a 8abf 6ced 29bd
00000240: beab 97be f88f 213e a3d1 13be 8d23 ec3e
00000250: 2c0b 60be a151 45be fae8 313e 7756 edbe
00000260: e2f0 84be ae9b 83bf cd12 6fbe ab0b ac3e
00000270: cc1e 2bbf 010d 2e3f 5484 383d dea1 073e
00000280: a26f 8e3e ab5b 273c c70c ad3e f183 12be
00000290: 6184 913e 26f1 f6bd ede1 ca3e a3c2 5cbe
000002a0: 03d3 903e e2da ca3d 1112 debe 2bc8 263e
000002b0: 1383 e33e 8be7 113e fa94 3ebf a218 60bf
000002c0: d5af 49bd 7601 72be c1f2 bd3e a493 0c3e
000002d0: 9371 563c 37ea 25be 29a7 983e 31b7 06bf
000002e0: 20a7 433e d8ee c63c 2e78 71bd 8768 9dbe
000002f0: 2961 773d 504e 60bc 8dd1 acbe 5433 08be
00000300: efbf f1be 2c9e 56bd 6560 5d3f 8ec7 db3e
00000310: ab2c 5abf cfda a13e b342 8dbe b2cb efbe
00000320: 74f9 233f 73ce fb3c 5ecb d7bc cf41 593e
00000330: 1b96 8cbe d595 85be b908 e13d 5de0 4dbf
00000340: 19c7 dcbe 944d 213e 1cb7 68be c86a aa3e
00000350: a084 b0bc 7c01 d1be 0bda 62be f04c 0bbf
00000360: e6b8 92bc 8354 a63e 1e98 30bd c630 a73e
00000370: 4c54 99be 7148 b33e 64bb b53d 6e22 223f
00000380: e126 083d 3841 fb3d e78b 0ebf 3c55 09bf
00000390: 93b7 243e 39df 8f3e c98a 32be bf1c 00bd
000003a0: a74d 28be f48f 553e 48ea 96be 4340 84be
000003b0: 3c24 1b3e 35c1 c53b 44ac 493e 9fcb 253d
000003c0: 9ff2 03bd c468 7d3e 0380 85be 3696 b93e
000003d0: 329f c0bf b390 bf3c 9850 cd3e 60ed 0e3b
000003e0: c451 38be 09bb 90bd 04df 413e 2e71 82be
000003f0: 6d8b 9bbd 9f09 f0be bd59 fd3e b570 fdbc

network_body._body_endoder.seq_layers.2.bias f4 [128]
0.47025934 0.1979416 -0.20691845 -0.37363583 -0.3255747 -0.0025454033 0.12535653 -0.22207034
-0.10670317 -0.24912642 0.24661812 -0.26688963 0.44751447 -0.15969951 0.35993358 -0.07571857
0.02777768 0.17262426 -0.32736826 -0.5317234 -0.18345287 0.111073494 0.11499581 0.045039214
0.742543 -0.19434075 -0.07331945 0.20679303 0.4091058 -0.06809408 -0.3125369 -0.23743491
-0.23958886 0.19607647 -0.20081295 0.04570584 0.045920037 -0.29090244 0.6602445 -0.019371297
0.14063095 -0.08266598 -0.17785943 -0.03297827 -0.04053371 -0.16645324 -0.35601777 0.20668687
-0.24366449 0.36963648 0.09064745 -0.025203608 0.0032480396 -0.293987 0.16177008 -0.061707444
0.10573222 0.122612454 -0.3011012 -0.20523183 0.09900568 0.11228297 -0.25474307 0.45499194
-0.04211839 0.03913926 0.095595784 -0.20141193 -0.14150737 0.10790011 0.05939333 -0.43050835
-0.19845581 -0.039832823 -0.1795781 0.093850404 0.83020526 -0.14378725 0.31653392 -0.12721244
-0.13787493 0.31157038 0.05174603 0.2042048 -0.29061306 0.16421667 -0.18089718 0.05427599
0.07842098 -0.10905503 -0.42770883 -0.21373218 0.09257676 0.2257514 -0.29829204 0.0359315
0.06527849 0.06395655 -0.43584448 0.21330164 -0.41791376 0.44768816 -0.5461883 -0.32643616
0.11669882 0.0028897857 0.16890134 -0.255292 -0.08128212 0.022158962 0.0010765519 0.070247956
0.0033907602 0.09257756 -0.3966173 -0.10085591 -0.054864913 0.2939783 0.17797945 -0.16021138
0.11182738 -0.38789406 0.1813886 0.28335035 0.243815 0.18647432 -0.030363036 -0.23896703
00000000: d5c5 f03e 34b1 4a3e 6ee2 53be 324d bfbe
00000010: bab1 a6be c8d0 26bb 765d 003e 6866 63be
00000020: 3187 dabd ff1a 7fbe 7689 7c3e c2a5 88be
00000030: 9e20 e53e 4588 23be 3749 b83e 5612 9bbd
00000040: 048e e33c 6ac4 303e d09c a7be 061f 08bf
00000050: 12db 3bbe 807a e33d ec82 eb3d 0a7b 383d
00000060: 4c17 3e3f 4301 47be 8228 96bd 8dc1 533e
00000070: 5176 d13e e974 8bbd d604 a0be 2322 73be
00000080: c856 75be 45c8 483e e9a1 4dbe 0c36 3b3d
00000090: a616 3c3d 2af1 94be c905 293f 8eb0 9ebc
000000a0: 8f01 103e c84c a9bd c820 36be 3914 07bd
000000b0: ad06 26bd b872 2abe f647 b6be b9a5 533e
000000c0: 2f83 79be fe40 bd3e 5fa5 b93d cc77 cebc
000000d0: 10dd 543b 7785 96be 0ea7 253e f2c0 7cbd
000000e0: 228a d83d 3d1c fb3d f029 9abe 4b28 52be
000000f0: 7dc3 ca3d 9df4 e53d af6d 82be b4f4 e83e
00000100: 5584 2cbd 7d50 203d b9c7 c33d ee3e 4ebe
00000110: 4fe7 10be bcfa dc3d 6c46 733d 976b dcbe
00000120: 0038 4bbe be27 23bd 52e3 37be a434 c03d
00000130: 5588 543f f73c 13be bc10 a23e fa43 02be
00000140: 162f 0dbe 2786 9f3e a5f3 533d 101b 513e
00000150: 3ccb 94be 6a28 283e 1c3d 39be 8050 5e3d
00000160: 2e9b a03d 3e58 dfbd a7fc dabe 9cdc 5abe
00000170: e298 bd3d 602b 673e bcb9 98be e92c 133d
00000180: bbb0 853d a7fb 823d 0227 dfbe bf6b 5a3e
00000190: cbf8 d5be 6237 e53e ffd2 0bbf a422 a7be
000001a0: caff ee3d 8f62 3d3b 79f4 2c3e a2b5 82be
000001b0: 3d77 a6bd b686 b53c 161b 8d3a 29de 8f3d
000001c0: 8437 5e3b 4e99 bd3d 6c11 cbbe 8b8d cebd
000001d0: 08ba 60bd 5384 963e 3f40 363e 740e 24be
000001e0: c105 e53d 0d9a c6be efbd 393e 4c13 913e
000001f0: a4aa 793e 20f3 3e3e e7bb f8bc c6b3 74be

action_model._discrete_distribution.branches.0.weight f4 [3, 128]
0.09258641 -0.49690992 0.33757168 0.17105713 0.89134234 -0.1411515 0.5391271 0.62290084
0.5594163 0.49247554 0.19692789 -0.30662477 -0.20121557 0.019442303 -0.24315202 -0.26213902
0.052861456 -0.055548765 0.2705372 0.5765684 0.42754626 0.3275842 0.2488767 -1.235195
0.2588231 0.76542646 -0.93635875 0.24249698 -0.0057097627 -0.1369258 -0.07087917 0.40549943
-0.10036605 0.049327336 -0.026632031 0.102528274 -1.479166 0.025942354 0.1538656 0.18022062
-0.22098863 0.28448522 -1.646314 0.5965483 0.12764916 0.040207237 -0.76234716 -1.44669
-0.6413567 0.5302227 0.45128435 0.09821874 0.342616 0.12318652 -1.0671794 0.049594264
-0.24031122 -0.08411586 -0.27329716 0.13749285 0.018637745 -0.63171464 -0.10289502 0.067842215
0.120260134 -0.2893268 -0.12265493 0.14880349 -0.27506486 -0.20164675 -1.1161513 0.2914141
-0.43313527 0.2409114 -0.077009924 0.1354186 0.02883253 0.81780285 -0.16816317 -0.19920872
0.22877502 0.14062746 -1.4349829 0.39041254 0.384088 0.4793403 -0.9891243 0.3333853
0.16694336 -0.9797396 -0.65861106 -0.28730085 -0.74316096 -0.09919742 0.8683292 0.32008293
-0.58210397 0.47792307 0.30281958 1.1507108 0.34573147 -0.3272116 0.13710421 0.4751746
-1.9222765 -0.48479477 -0.3595576 0.09877874 0.12252306 0.48701426 0.3721672 -0.20164931
-0.80247927 0.783716 0.018820569 -0.25581414 -0.12726371 0.45207635 -0.22893883 0.37709317
0.41360793 0.04488842 0.45042795 0.106396936 -0.5525281 -0.056817465 0.1793763 0.10843536
-0.12206647 0.18140504 0.22843589 0.42883262 0.23068607 -0.835598 -0.31835058 -1.0252779
-0.46966678 -0.59701586 -0.3622046 -0.9820038 0.49285355 -0.3168875 0.3533975 -0.49163
0.3587475 -0.36265028 0.13578202 -0.49378294 -0.76188946 -1.0807512 0.69115543 0.92185175
0.1267855 -0.14339606 0.86440027 0.71608853 0.33137423 0.06756042 0.61542445 -1.0827777
0.7400859 -1.0925714 -0.5418416 0.44476476 0.0128495 0.36629367 0.51544416 -0.33352986
0.5469068 0.45336622 1.0422406 0.035269395 0.22718294 -0.73492306 0.4228584 0.62130475
-0.22609816 -0.0684834 0.49922025 0.5645695 -0.079640314 -0.07811765 0.13447516 -1.5333616
-0.22852074 0.6539966 0.44455278 0.23146312 0.3355254 0.66939026 0.42825323 0.22550608
-0.5658686 0.14753662 0.37888685 -0.55540484 -0.03588377 0.36659864 -0.26315802 0.5670293
0.7735068 0.1074967 0.0022792383 0.005126284 0.25618887 -0.3620675 0.35814068 0.42850173
0.65517884 -1.0418423 0.39174 -1.3603289 -0.85444367 -0.352375 -0.14006858 -0.25246453
0.7596847 -0.29647508 0.014099163 -0.18572636 0.26467466 -0.062238134 -0.79895425 0.15245424
0.2626436 -0.23397246 -0.36212453 -0.1253253 0.2660254 -0.6376292 0.7559749 -0.43666628
0.24459256 0.7325925 0.5533318 -1.2472123 -0.8909652 -0.46219036 0.26607424 0.04635419
1.1913296 0.0786407 0.54471177 -0.75996405 -0.45251784 1.1466746 -0.034238927 -0.06740389
-0.06200753 -0.06903063 -0.42174748 0.112760045 1.203036 0.64435035 1.049918 -0.011976258
00000000: f29d bd3d fa6a febe 32d6 ac3e 9a29 2f3e
00000010: 032f 643f 058a 10be 3c04 0a3f 6e76 1f3f
00000020: e835 0f3f c125 fc3e 77a7 493e ecfd 9cbe
00000030: 740b 4ebe 7745 9f3c d8fc 78be 1637 86be
00000040: 4185 583d 1a87 63bd da83 8a3e fd99 133f
00000050: 58e7 da3e 1eb9 a73e 89d9 7e3e df1a 9ebf
00000060: 7684 843e fdf2 433f 35b5 6fbf 2151 783e
00000070: f618 bbbb 4736 0cbe 1929 91bd 9f9d cf3e
00000080: b78c cdbd 760b 4a3d 6b2b dabc 58fa d13d
00000090: 5055 bdbf 0f85 d43c f28e 1d3e c18b 383e
000000a0: d84a 62be 0ca8 913e 6bba d2bf 64b7 183f
000000b0: 76b6 023e 58b0 243d 2f29 43bf 232d b9bf
000000c0: f42f 24bf adbc 073f be0e e73e e826 c93d
000000d0: 5d6b af3e 3749 fc3d 5699 88bf 5b23 4b3d
000000e0: 2514 76be f044 acbd 9bed 8bbe edca 0c3e
000000f0: 2fae 983c 0db8 21bf a0ba d2bd dcf0 8a3d
00000100: f24a f63d a422 94be 8232 fbbd f15f 183e
00000110: 4dd5 8cbe 7c7c 4ebe 0cde 8ebf 3b34 953e
00000120: e8c3 ddbe 7ab1 763e 61b7 9dbd 2cab 0a3e
00000130: 3332 ec3c 875b 513f f732 2cbe 5ffd 4bbe
00000140: 0044 6a3e a500 103e 85ad b7bf 27e4 c73e
00000150: 2fa7 c43e 186c f53e 4037 7dbf 7ab1 aa3e
00000160: 33f3 2a3e 37d0 7abf bc9a 28bf 1919 93be
00000170: cc3f 3ebf 0428 cbbd d34a 5e3f e9e1 a33e
00000180: c404 15bf 55b2 f43e 2b0b 9b3e 7e4a 933f
00000190: b703 b13e 4788 a7be 0c65 0c3e 164a f33e
000001a0: 280d f6bf 0537 f8be ef17 b8be 824c ca3d
000001b0: 5fed fa3d ef59 f93e b38c be3e 287d 4ebe
000001c0: 486f 4dbf 9da1 483f 982d 9a3c 12fa 82be
000001d0: 6b51 02be 8d76 e73e f16e 6abe 5b12 c13e
000001e0: 6bc4 d33e ebdc 373d 7e9e e63e a3e6 d93d
000001f0: 7b72 0dbf 6eb9 68bd 6cae 373e 5c13 de3d
00000200: fcfd f9bd 3ec2 393e 19eb 693e f38f db3e
00000210: f838 6c3e c0e9 55bf d9fe a2be 4e3c 83bf
00000220: 2a78 f0be 08d6 18bf e272 b9be 9a64 7bbf
00000230: 4d57 fc3e 143f a2be 84f0 b43e edb6 fbbe
00000240: c1ad b73e 4cad b9be 710a 0b3e 1ed1 fcbe
00000250: 300b 43bf 0e56 8abf 90ef 303f 7afe 6b3f
00000260: 0fd4 013e 6bd6 12be 5649 5d3f 9451 373f
00000270: e2a9 a93e 1e5d 8a3d 758c 1d3f 7698 8abf
00000280: 4576 3d3f 61d9 8bbf 22b6 0abf 35b8 e33e
00000290: b686 523c d88a bb3e 26f4 033f 6dc4 aabe
000002a0: 1602 0c3f 9e1f e83e 2468 853f a476 103d
000002b0: a5a2 683e eb23 3cbf e580 d83e d40d 1f3f
000002c0: 4786 67be 0641 8cbd cc99 ff3e a087 103f
000002d0: 761a a3bd 25fc 9fbd dbb3 093e 3145 c4bf
000002e0: 5701 6abe 526c 273f 6c9c e33e ab04 6d3e
000002f0: fcc9 ab3e 295d 2b3f 0244 db3e 11eb 663e
00000300: c4dc 10bf d713 173e 75fd c13e 032f 0ebf
00000310: dcfa 12bd d1b2 bb3e a6bc 86be d528 113f
00000320: 8b04 463f 3b27 dc3d 465f 153b 63fa a73b
00000330: 302b 833e e960 b9be 375e b73e 9464 db3e
00000340: cdb9 273f 175b 85bf 2592 c83e 421f aebf
00000350: d2bc 5abf 7f6a b4be 236e 0fbe 0843 81be
00000360: b27a 423f 95cb 97be 2d00 673c 0d2f 3ebe
00000370: 7083 873e 6aed 7ebd 4488 4cbf f71c 1c3e
00000380: 3979 863e 7a96 6fbe 6368 b9be 4755 00be
00000390: 7b34 883e ab3b 23bf 9287 413f b992 dfbe
000003a0: 7976 7a3e 2f8b 3b3f 27a7 0d3f a7a4 9fbf
000003b0: 4c16 64bf 37a4 ecbe e23a 883e e4dd 3d3d
000003c0: 7d7d 983f 600e a13d 3b72 0b3f 018d 42bf
000003d0: 6bb0 e7be 3cc6 923f 1e3e 0cbd 0d0b 8abd
000003e0: 9cfb 7dbd ee5f 8dbd 49ef d7be bdee e63d
000003f0: 15fd 993f 25f4 243f b763 863f 1138 44bc

action_model._discrete_distribution.branches.0.bias f4 [3]
0.155869 0.40723214 -0.056798488
00000000: 209c 1f3e bb80 d03e 88a5 68bd

action_model._discrete_distribution.branches.1.weight f4 [3, 128]
-0.5059145 -0.24335076 0.4351134 0.023613773 -0.14543235 -0.71422446 -0.023726383 0.43916598
-1.8546194 0.121634424 0.0903174 -0.79597193 -0.024695469 0.34072646 0.28124154 -0.08206121
0.46076813 0.54364955 -0.24860057 0.22073455 0.28881732 -0.18699433 0.1324266 -0.63289475
0.18227689 -0.4563794 0.20469323 -0.025785409 0.04311271 0.17150858 0.7631855 0.32669404
-1.1709441 -0.06688925 0.2666929 0.24050719 1.2002646 0.094139226 0.016079435 0.242182
0.40322298 -0.80681866 -1.2067279 0.81851834 -0.008419512 -0.114170164 -0.695311 0.48465425
0.8039902 0.32777888 0.6851899 -1.1598325 0.23401386 0.11287351 -0.30787462 0.6386896
0.24026367 0.09836538 0.28204438 0.1620728 0.23560542 -0.5710794 -0.052171107 -0.47252208
0.32171115 1.0261158 0.0486238 -0.15546371 -0.7916945 0.23158413 -0.7168809 -0.031832974
-0.47387382 -0.5763461 -1.4838886 0.30548483 0.012475894 0.28184575 0.37768903 0.27365312
0.36098337 0.14529346 0.43264446 -0.13705572 0.57342094 -0.36546826 0.58353734 -1.0000612
0.2163382 -0.51608753 -0.08273101 -0.086233154 0.6172879 -0.37179688 -0.41626853 0.27156094
0.6596172 0.48158 0.13569865 -0.3983632 0.37911272 0.4667753 0.7477521 0.39895535
-0.7238721 -0.18600559 -0.5202989 -0.024517916 -0.0129821915 -0.00660737 0.5219025 -0.9915311
0.47449407 0.17674159 0.7782847 -0.251669 0.136813 -0.14118028 0.361396 0.6193223
0.25423118 -0.42548314 -0.14690486 0.25237793 -0.31778187 0.1858399 -0.4774963 0.17238824
0.89439106 0.21320488 0.27483714 -0.6612298 0.22413836 0.5708478 1.2185843 -0.2940855
-0.15436916 0.08805325 0.18565479 0.81154865 0.16737804 0.29990116 0.4385412 0.5102339
-0.37559924 0.4133762 0.9033155 -0.35505292 0.5720211 0.042702977 -0.0937608 -0.02158174
0.51592475 -0.31655657 -0.22533382 0.0023618438 0.29607934 0.0651122 -1.4797132 -0.014146216
0.5907921 0.2038411 0.055933997 0.36711973 -0.6586009 -0.28183803 0.25020158 0.13006383
-0.81327945 -0.1590686 0.961183 0.17522998 0.38781652 -0.3498115 0.48967192 -1.1244559
0.24967669 0.1793961 -1.1968964 -0.0027710805 -0.15315364 -0.50073034 0.71883863 -0.053601544
0.17989281 0.10366659 -0.18576926 -0.19316939 0.4627458 -0.4026266 -0.43357173 0.06908951
0.248415 -1.0546244 0.35348168 0.19215028 0.3553895 0.56980765 -0.37134534 -0.080311365
0.09429863 -0.49878362 0.12373769 -0.906253 0.6444076 0.6228069 0.060279947 0.034193218
-0.19871907 -1.3414625 -0.06415114 0.2520807 0.40917614 0.053044554 0.44525093 0.82889676
-1.0063632 0.12983194 -0.5674683 0.09762121 0.45097983 0.66350585 -0.65969485 0.3910225
-0.6191694 -0.8327869 0.24871275 0.55394256 -0.0028289433 0.7186906 -0.14529157 0.002463586
0.5514697 -0.9115003 0.27013963 0.33814412 -0.2984046 0.085788265 -0.8683414 0.113452256
-0.47376093 -0.34425423 -0.34486732 0.5815918 -0.3389835 0.18233831 0.12346471 0.18098404
-0.5513201 -0.6534933 0.41718495 0.5328497 0.26475182 0.4782291 0.5330652 -0.07151031
00000000: 9d83 01bf f130 79be 2fc7 de3e ac71 c13c
00000010: 38ec 14be 6ad7 36bf d55d c2bc 5dda e03e
00000020: 2b64 edbf 781b f93d 54f8 b83d d1c4 4bbf
00000030: 274e cabc b373 ae3e e4fe 8f3e b50f a8bd
00000040: cde9 eb3e 9e2c 0b3f 2691 7ebe 3d08 623e
00000050: dddf 933e 717b 3fbe d79a 073e 6405 22bf
00000060: cba6 3a3e 90aa e9be 1a9b 513e ec3b d3bc
00000070: f496 303d f29f 2f3e 2060 433f 7144 a73e
00000080: 7fe1 95bf 3bfd 88bd f98b 883e 8447 763e
00000090: 45a2 993f 11cc c03d 05b9 833c 8ffe 773e
000000a0: 3e73 ce3e ab8b 4ebf 0f76 9abf 6b8a 513f
000000b0: fef1 09bc 0cd2 e9bd e7ff 31bf 9a24 f83e
000000c0: 4dd2 4d3f a2d2 a73e 9b68 2f3f 6475 94bf
000000d0: 54a1 6f3e 3a2a e73d bea1 9dbe 2981 233f
000000e0: ae07 763e ca73 c93d 1f68 903e 69f6 253e
000000f0: 8c42 713e 4232 12bf 5fb1 55bd 6aee f1be
00000100: 53b7 a43e c357 833f c029 473d e131 1fbe
00000110: 7eac 4abf 6424 6d3e 8285 37bf 4b63 02bd
00000120: 979f f2be 6b8b 13bf 10f0 bdbf 8268 9c3e
00000130: b167 4c3c 164e 903e 7560 c13e 431c 8c3e
00000140: d0d2 b83e cfc7 143e 9383 dd3e 5658 0cbe
00000150: b7cb 123f a81e bbbe b462 153f 0102 80bf
00000160: c387 5d3e 501e 04bf e06e a9bd 029b b0bd
00000170: 9406 1e3f 295c bebe 2621 d5be 090a 8b3e
00000180: acdc 283f a791 f63e 96f4 0a3e 43f6 cbbe
00000190: 101b c23e 2cfd ee3e ae6c 3f3f e043 cc3e
000001a0: af4f 39bf 4078 3ebe 4f32 05bf ccd9 c8bc
000001b0: 42b3 54bc a382 d8bb 679b 053f fbd4 7dbf
000001c0: e3f0 f23e bffb 343e ab3d 473f c2da 80be
000001d0: b518 0c3e 9091 10be e608 b93e e88b 1e3f
000001e0: 972a 823e edd8 d9be 3a6e 16be ae37 813e
000001f0: 4eb4 a2be d14c 3e3e 657a f4be 8b86 303e
00000200: d0f6 643f 6152 5a3e 74b7 8c3e 5b46 29bf
00000210: 8784 653e 1523 123f 92fa 9b3f 6092 96be
00000220: f312 1ebe 4355 b43d 4a1c 3e3e a7c1 4f3f
00000230: 2665 2b3e a58c 993e 7988 e03e b09e 023f
00000240: 8b4e c0be 0ca6 d33e af3f 673f 7fc9 b5be
00000250: fa6f 123f 51e9 2e3d aa05 c0bd 30cc b0bc
00000260: a513 043f b413 a2be e9bd 66be 2ac9 1a3b
00000270: b697 973e 8c59 853d 3e67 bdbf 88c5 67bc
00000280: 273e 173f b9bb 503e 0c1b 653d 1ef7 bb3e
00000290: 129a 28bf 134d 90be 6c1a 803e 742f 053e
000002a0: 1533 50bf e1e2 22be 1710 763f 7d6f 333e
000002b0: e38f c63e 7e1a b3be 47b6 fa3e 2cee 8fbf
000002c0: 3fab 7f3e 9cb3 373e e733 99bf 049b 35bb
000002d0: 4fd4 1cbe dd2f 00bf cf05 383f 4b8d 5bbd
000002e0: d235 383e 264f d43d 4c3a 3ebe 32ce 45be
000002f0: 04ed ec3e 1325 cebe 1dfd ddbe cd7e 8d3d
00000300: 8060 7e3e effd 86bf 8dfb b43e 0bc3 443e
00000310: 9df5 b53e eade 113f fa20 bebe 497a a4bd
00000320: a41f c13d 9160 ffbe 306a fd3d 3200 68bf
00000330: e5f7 243f 4670 1f3f 1be8 763d 300e 0c3d
00000340: 037d 4bbe 0bb5 abbf ac61 83bd b910 813e
00000350: 897f d13e 3f45 593d eef7 e33e 9432 543f
00000360: 82d0 80bf aaf2 043e 9a45 11bf a1ed c73d
00000370: d4e6 e63e 85db 293f c3e1 28bf 1a34 c83e
00000380: e381 1ebf 8631 55bf 8eae 7e3e 2ecf 0d3f
00000390: cb65 39bb 1bfc 373f 50c7 14be 1d74 213b
000003a0: 1e2d 0d3f 1558 69bf be4f 8a3e 3a21 ad3e
000003b0: 7dc8 98be c2b1 af3d 9f4b 5ebf a859 e83d
000003c0: cb90 f2be 1742 b0be 7392 b0be 33e3 143f
000003d0: 3f8f adbe e5b6 3a3e 11db fc3d e153 393e
000003e0: 5023 0dbf 564b 27bf 4499 d53e d768 083f
000003f0: 8d8d 873e 72da f43e f676 083f ff73 92bd

action_model._discrete_distribution.branches.1.bias f4 [3]
-0.11937255 0.48151314 0.18524748
00000000: 9879 f4bd e488 f63e 84b1 3d3e
